cifar_net.pth (torch, 251604 bytes, 10 tensors)

conv1.weight f4 [6, 3, 5, 5]
000000 03 fd ad 3c 92 29 09 3e 05 e5 ec 3d aa 37 05 bc
       0.02123881 0.13394764 0.115671195 -0.008130947
000010 16 2d 06 be 6b 0e e4 3d 0f c2 92 3d 35 94 af 3d
       -0.13103136 0.111355625 0.0716592 0.0857319
000020 51 d6 e1 bc 3a 68 38 bd 2e 49 bb 3d d1 12 df 3d
       -0.027568014 -0.045021273 0.09144817 0.10892261
000030 da cc 98 3d 90 37 07 3e 3d a3 04 3e a0 ed 17 bc
       0.07460947 0.13204789 0.12952895 -0.009272963
000040 57 11 ce 3d 33 77 d8 3d 9c 4e 2a 3e d8 9b 76 3e
       0.10061901 0.105696104 0.1663155 0.24082887
000050 19 54 bc 3d cd 75 2b ba eb 22 c3 3d 23 9d 7a 3e
       0.09195728 -0.0006540686 0.095281444 0.24474005
000060 43 db 4a 3e bf 30 c6 bd 11 62 d9 3c 03 bd ec bb
       0.19810204 -0.09677266 0.02653602 -0.0072246804
000070 cd 7c de bd 58 a3 09 be a0 7b 20 be 5e 00 12 bd
       -0.108636476 -0.13441217 -0.15672159 -0.03564488
000080 3b 33 3a 3d 15 10 6f 3d 92 9a 13 be 7e 6d d3 bd
       0.045459013 0.058364946 -0.14414433 -0.10323618
000090 4b c9 2c be 5b f7 04 bd 63 98 bc bd e2 61 b6 bd
       -0.16873662 -0.03246246 -0.09208753 -0.089053884
0000a0 86 69 0f be 0d ee 49 be 5f 2c aa bd ea 2e 30 be
       -0.14005098 -0.19719715 -0.08309244 -0.17205396
0000b0 44 f2 ca bd 95 2f 1e be ef e8 18 be b9 49 51 be
       -0.0990949 -0.15447839 -0.14932607 -0.20438279
0000c0 7b ab 4a be 01 5a 4d be 72 9c 9b 3e 23 35 64 3e
       -0.19791977 -0.20053865 0.30392796 0.22285895
0000d0 2c ab 23 3e e8 18 2b 3e 47 fd cc 3d 14 f7 b3 3d
       0.15983266 0.1670872 0.10009246 0.08787361
0000e0 a9 ef 30 3e 1e ca b3 3d 27 0c 32 3e c7 a2 12 3e
       0.17278923 0.08778785 0.17387448 0.14319907
0000f0 cd d6 a5 bd 79 e9 c0 3d 18 cd a1 3d d4 7a e4 3d
       -0.080976106 0.094195314 0.07900447 0.1115624
000100 59 1f 39 bc a2 c2 70 3d 7a 3b 2e ba d1 fe 06 3d
       -0.011298978 0.058779366 -0.0006646436 0.032957856
000110 0e 74 1a 3e d5 40 60 bd 63 3a ae bd 3b b0 79 3d
       0.15083334 -0.05474933 -0.0850723 0.060959082
000120 17 e4 8d bc f1 61 1c 3d 7d d5 0b 3e 09 48 52 3e
       -0.017320676 0.03817934 0.13655658 0.20535292
000130 21 75 0e 3d 6a 4f 02 be 94 c1 b2 3c 42 c3 98 3d
       0.03477967 -0.12725607 0.02182082 0.074591175
000140 2c 46 0c 3e e9 67 ca bc 70 6c 9c bd ca 32 2d 3e
       0.13698643 -0.024707751 -0.0763787 0.16913906
000150 2c a5 37 3e 85 d7 f2 3c 2f bb 75 3d 05 39 8e bc
       0.17934102 0.029643783 0.059992965 -0.017361173
000160 98 c1 ca 3d 56 d2 fb 3d e6 24 8c bd 5f 61 34 3c
       0.09900206 0.12295978 -0.06842975 0.011009543
000170 ee a3 37 3e 9f 60 3e 3e 54 6f 44 3e 15 0f 6b bd
       0.17933628 0.18591546 0.19183093 -0.05738743
000180 46 5b 05 3e 5d 06 35 3e 4c de 36 3e 40 06 23 3d
       0.130231 0.17678209 0.17858237 0.039800882
000190 bc 49 cd bd d4 53 4b be 2b 44 d2 be 89 21 cd be
       -0.10023829 -0.19856197 -0.41067633 -0.40064648
0001a0 eb 9b 8f bd da 5d 80 be 30 94 ed be 4b 40 f2 be
       -0.07012161 -0.25071603 -0.4640212 -0.47314677
0001b0 93 65 db bd 3c 5c 7a bd 92 b0 96 be ef c7 f3 be
       -0.10712733 -0.061123118 -0.29431587 -0.47613475
0001c0 c0 f3 67 be 2e 7f f3 bc 9e 72 0f bc 35 63 64 be
       -0.22651577 -0.02972373 -0.008755354 -0.2230347
0001d0 b8 53 d7 be b8 17 41 be eb 91 18 bc 13 e8 20 bb
       -0.4205606 -0.18856704 -0.009312133 -0.002455239
0001e0 d4 d2 3f be 21 d9 88 be 2f 26 82 bd ab e6 ec bc
       -0.18732768 -0.26728156 -0.06354939 -0.028918585
0001f0 35 d1 33 bc 47 e1 86 3e bd 15 04 3e f0 69 c4 bd
       -0.010975172 0.26343748 0.12898917 -0.095905185
000200 14 ec 3e bd ff 93 77 3d 9d de 2a 3e 00 dd b6 bd
       -0.04661186 0.060443874 0.16686483 -0.08928871
000210 00 4b 9e bd 26 58 b0 3b e8 25 9f 3e 36 0d d4 bd
       -0.07729149 0.005381602 0.31083608 -0.10354082
000220 8a 08 13 be 45 7f f4 bd 0d ba 30 3e cb 69 cc 3e
       -0.14358726 -0.11938337 0.17258473 0.39924464
000230 bf 7a ab bd d1 23 ce bd 01 a3 ab 3d 13 65 83 3e
       -0.08373021 -0.10065425 0.083807 0.2566305
000240 89 ef 45 3e 43 1d c6 3d 04 cc 58 3d 63 60 65 3e
       0.19329657 0.0967355 0.05292894 0.2240005
000250 a2 ec 8a 3e 11 7d 77 3e 08 b7 91 bd 2f 34 da 3d
       0.27133662 0.24168803 -0.071149886 0.106544845
000260 ef 33 95 bc b9 5b df 3d 8d 6f 9f 3c 5f fa 84 be
       -0.01821324 0.109061666 0.019462371 -0.25972268
000270 c5 2c a5 be 16 81 48 be 1e 40 0c be c1 61 9d be
       -0.3226072 -0.19580492 -0.13696334 -0.30738643
000280 f3 30 c3 be da d1 8d be cf 72 88 be 04 4a 50 be
       -0.38123283 -0.27699167 -0.26650092 -0.20340735
000290 dd 51 f7 bd ea 33 6e 3b dd c5 da 3d c9 48 83 3d
       -0.12076161 0.003634686 0.10682271 0.06410367
0002a0 fc 67 29 bd 1c fc 80 bd 84 35 c7 3e 0b 0d 7d 3e
       -0.041358933 -0.06298086 0.38908017 0.24712007
0002b0 bb 15 7f 3e 14 23 4d 3e 94 52 83 3e 4a ba b4 3d
       0.24910633 0.20032912 0.2564894 0.08824594
0002c0 0b 69 bd 3d 84 77 2b 3e 31 c4 2c 3d f8 6d 9b 3d
       0.09248551 0.1674481 0.04217929 0.07589334
0002d0 44 14 77 bc 26 3c 12 3c e6 a4 31 be 6b c8 be bd
       -0.015080515 0.008925473 -0.1734806 -0.093155704
0002e0 38 49 d3 bd 40 fa 30 be bf a4 8d be 11 46 3c be
       -0.103167 -0.17282963 -0.27664754 -0.18386103
0002f0 db be 5b be 2b c4 78 be 77 65 51 3e e9 5e a6 3c
       -0.21459524 -0.24293582 0.20448862 0.020308929
000300 64 eb 17 3c 5a de cb 3d 7a 65 68 bd 4e 94 0c 3e
       0.00927243 0.099545196 -0.0567374 0.13728449
000310 4b 53 9a 3e 5a 85 95 3e 55 3d 8e 3e 66 12 e6 3d
       0.30141672 0.29203302 0.27781168 0.11233978
000320 ba 02 82 3d 3f b1 74 3d 03 e4 84 3d 1d 39 20 3e
       0.06348176 0.059739348 0.06488802 0.15646787
000330 1a 56 3e 3d 68 dc d9 bd ff 6f 93 3b bb 26 05 be
       0.04646883 -0.10637742 0.004499435 -0.13003056
000340 f6 f1 53 be 3c 4c 0b be 50 1d 0d be c1 1f 0d be
       -0.2069777 -0.136033 -0.13780713 -0.13781644
000350 a7 11 fe bd e8 bc 88 bd 7a 7f c3 bd 36 57 41 3e
       -0.12405711 -0.06676656 -0.095457986 0.18880925
000360 4d 6b ad 3d 2d a9 87 3d c2 1b c5 bc 68 8f 40 bd
       0.084677316 0.066240646 -0.024061088 -0.047011763
000370 3f 3d cb 3d 7b b7 e6 3d b3 e9 09 3e d9 27 48 3d
       0.09923791 0.11265465 0.13468055 0.048866127
000380 30 40 2c 3d bf 4b 17 be 9b e6 1e be d5 0d 05 be
       0.0420534 -0.14774989 -0.15517657 -0.12993558
000390 a9 46 59 be 0b 05 18 be bb 66 1e be 60 2d 9c bd
       -0.21218361 -0.14845674 -0.15468876 -0.07625842
0003a0 77 55 89 be c9 69 1d be 50 65 3f bd df a4 3f be
       -0.26823017 -0.15372385 -0.04672748 -0.18715237
0003b0 4c 60 75 be 70 eb 43 be b5 82 60 be d1 c9 8b be
       -0.23962516 -0.19132781 -0.21924861 -0.2730241
0003c0 fb 38 de bd 26 f8 2a be 73 45 b5 bd 48 85 96 be
       -0.10850712 -0.16696224 -0.08851137 -0.2939856
0003d0 a5 c9 04 be 8b 0f 24 3d 0b 91 a2 bd ae 53 9d bd
       -0.12967546 0.040053885 -0.07937821 -0.07681976
0003e0 b3 3e 4e be 76 93 3c be 7c 9b 08 bc ad 38 55 bd
       -0.20141105 -0.18415627 -0.008337852 -0.052056003
0003f0 73 26 8d 3c 59 96 5d 3d 02 eb cc bc 9e bf 2b bd
       0.017230248 0.05409846 -0.025014404 -0.041930787

conv1.bias f4 [6]
000000 77 cb 5b 3e 27 02 ae bd 66 35 69 be 92 48 ef 3e
       0.21464334 -0.08496504 -0.22774276 0.46735054
000010 71 84 3a be fb 09 0a bf
       -0.18214585 -0.5392148

conv2.weight f4 [16, 6, 5, 5]
000000 fa e6 3a 3d 87 d6 cd 3c fc 0e 34 be d5 24 0a be
       0.045630433 0.025126709 -0.17583841 -0.13490613
000010 a2 93 35 be 28 a6 3f 3e e1 e5 99 3d 41 22 6a 3d
       -0.17732099 0.18715727 0.07514549 0.057161573
000020 d9 c0 3a 3d 30 a8 dc bc 30 ab 50 3d 2b 15 ff 3d
       0.04559407 -0.026935667 0.050944507 0.12455209
000030 07 67 10 3e aa 6d 45 bc 85 a0 dc bd d8 c1 bc 3d
       0.14101802 -0.012050072 -0.10772804 0.0921666
000040 d0 a4 79 3d e8 37 bb bc e1 3d 8a bd 73 77 fc bc
       0.060948193 -0.022853807 -0.06750084 -0.030818677
000050 82 88 87 3d b3 37 31 3c 9c a8 c7 bd 6d d8 ca bd
       0.06617834 0.010816502 -0.097489566 -0.09904561
000060 23 2a 67 be 77 c0 3f bd 25 0f f5 3d 24 8a a6 3d
       -0.22574668 -0.04681441 0.11965779 0.08131817
000070 6a 5c 00 3e c6 a3 b3 3d 76 4a 77 bb 30 ed c2 3c
       0.12535253 0.08771472 -0.003773359 0.02379474
000080 e8 c3 c1 3b d3 09 12 bd 52 7f 34 3c ee f0 d8 3c
       0.0059132464 -0.0356539 0.011016684 0.026482072
000090 9c 40 05 3e 20 40 bd 3d f0 42 58 3d 0b 31 6c 3e
       0.13012928 0.092407465 0.05279821 0.23065583
0000a0 21 22 fc 3c 0b 02 cb bc 21 40 90 3d 2d b1 fd 3d
       0.030777993 -0.024781248 0.070434816 0.12387309
0000b0 36 6f 05 3e 38 80 4a be 1d 11 3b be 04 28 b0 bd
       0.13030705 -0.19775474 -0.18268247 -0.086013824
0000c0 74 28 ef bd 5c 3b a3 bd 02 f2 c7 3d 16 27 09 3e
       -0.11677638 -0.07970306 0.09762956 0.13393816
0000d0 ef 2f 3d 3e b9 9d 11 3e 11 ee ad 3d 2c 57 ac bc
       0.18475316 0.14220323 0.08492673 -0.02103766
0000e0 1c 56 e2 3d eb 01 3b bd c8 6e 7b 3d ef db e2 3d
       0.1105158 -0.045656126 0.061384946 0.11077105
0000f0 84 de 1f bc d2 96 67 bd 02 16 8d 3d 8a 4d 10 3e
       -0.009757642 -0.056540318 0.06888963 0.14092079
000100 fe e7 86 3d 1a 7f 65 bd 04 e2 56 be 54 54 c5 bd
       0.06587218 -0.056029417 -0.20984656 -0.09635225
000110 4a 34 29 be aa 9e 9f bc a4 e3 f4 bb bb 73 22 3d
       -0.16523853 -0.019484837 -0.007473426 0.03966115
000120 7a 18 6a bd f9 3e 45 bd 10 e1 6f bc 97 20 ac bd
       -0.05715225 -0.04815576 -0.014641061 -0.084046535
000130 c3 12 b8 bd f8 46 ae bc 32 fd 94 3b 21 5c ac 3d
       -0.089879535 -0.021274075 0.004546785 0.0841601
000140 14 30 a5 bc d5 61 10 bd 77 f1 cd 3b f6 e9 d6 bd
       -0.020164527 -0.03524955 0.0062848884 -0.10493843
000150 9b 41 be bb 99 ba 6b bc cd 5d 0a 3d 00 61 81 3d
       -0.0058061606 -0.01438775 0.03378086 0.063173294
000160 12 ab 78 3d fa f2 06 3c 1c 62 84 3d 35 85 61 3d
       0.06071002 0.008236641 0.064640254 0.055058677
000170 37 cc 3d bd 15 84 b3 bd 8f 5d b1 bd ad a6 52 3d
       -0.046337333 -0.08765427 -0.08660423 0.051428486
000180 26 3a 37 3c 83 c2 52 3d 74 34 c7 ba 67 06 77 3d
       0.011183297 0.051455032 -0.0015198127 0.06030884
000190 be 7d 1a 3e 0c 3c 4a 3d 53 da 0f be 00 66 d4 bd
       0.1508703 0.04937367 -0.14048128 -0.103710175
0001a0 37 99 25 be e2 63 66 be c4 04 8f be 45 8b 54 be
       -0.16171728 -0.2249904 -0.27933323 -0.20756252
0001b0 91 c6 ec bd 86 5d d1 3c 01 e3 2f be 0a 75 26 be
       -0.11561311 0.02555729 -0.17176439 -0.16255584
0001c0 71 63 0a be a6 a1 1e be 78 45 c9 bd 0a aa e1 bc
       -0.13514496 -0.15491351 -0.09827703 -0.027546901
0001d0 6e 33 b6 bd c5 3d 31 be 55 cb cc bd e0 aa fb bd
       -0.08896528 -0.1730872 -0.0999972 -0.12288451
0001e0 bf 1c 8c 3d 1f 59 a3 bd 85 2a 8a bd 52 b7 af bd
       0.068414204 -0.07975983 -0.06746391 -0.085798874
0001f0 66 09 6b be 3f ef 53 3e a5 57 40 3e ae 04 94 3d
       -0.22952804 0.20696734 0.18783434 0.07227455
000200 4c 10 d1 3d 8e 08 60 3e 69 b8 6a 3e 85 b2 55 3c
       0.102081865 0.21878263 0.2292191 0.013043051
000210 77 13 df bd eb b3 df 3c 06 42 8a 3e 15 f4 bf 3d
       -0.108923845 0.027307471 0.27003497 0.09372727
000220 00 d7 1f 3e 84 7a d2 3d a5 19 3b 3e 68 c0 53 3e
       0.1560936 0.10277274 0.18271501 0.20678866
000230 01 d0 f3 3d 6b 37 95 3d ae 9a e9 bd 15 12 02 3d
       0.11904908 0.07285961 -0.11406456 0.031755526
000240 5d a3 25 3d 93 e3 51 3e 27 00 4e 3e 33 14 27 3e
       0.040439 0.20496969 0.20117246 0.16316299
000250 97 99 a5 3d 44 08 84 bd 31 7f 34 be 60 53 41 be
       0.080859356 -0.06446889 -0.17626645 -0.18879461
000260 8d 76 b3 bd ed 24 83 3c b4 8a 70 3d 3d 5e f6 bd
       -0.08762846 0.016008819 0.058726028 -0.12029693
000270 22 73 4a be 75 aa 0a be 8a 43 17 be 60 98 15 39
       -0.19770482 -0.13541587 -0.14771858 0.00014266511
000280 b4 d1 eb bd 52 4b ee bd ef 92 03 be 25 71 1f be
       -0.11514607 -0.1163546 -0.1284902 -0.15570505
000290 9e 06 9b bc 3f d5 11 be 34 ef 8d bd 96 ec f3 bc
       -0.018924054 -0.14241503 -0.0693039 -0.029775899
0002a0 15 31 0f bd e7 95 25 3d 2d 19 39 bd de c9 93 bd
       -0.034958918 0.04042616 -0.045190025 -0.072162375
0002b0 79 8f 1c be 9e 83 b8 bd c2 7c 5f 3d 77 73 f6 bd
       -0.15289105 -0.09009479 0.054562338 -0.12033742
0002c0 58 e4 02 be 29 e6 15 be ac 60 10 be 24 2c 12 bd
       -0.12782419 -0.1463858 -0.14099377 -0.035686627
0002d0 c1 4c e3 bd 31 9f 00 be 43 ec 1f be 2e 2b e9 bd
       -0.11098624 -0.12560727 -0.1561747 -0.11385189
0002e0 d9 f8 9d bc f7 09 50 be a1 bc f7 bd 44 00 02 bd
       -0.019283699 -0.20316301 -0.12096525 -0.031738535
0002f0 eb b0 d1 bd 97 e6 e3 bd 94 55 ed bd dd 46 ca bd
       -0.102388225 -0.11127966 -0.11588588 -0.09876797
000300 22 51 27 be 60 1a 8c bd dc 53 ad bd ad 6a 1b be
       -0.16339543 -0.06840968 -0.084632605 -0.15177412
000310 37 f3 f0 bc b0 94 62 bd fc e1 32 3d 5c 17 3c bc
       -0.029412849 -0.05531758 0.043672547 -0.011480179
000320 4f c2 83 3d c2 8e b6 3d 64 3d 96 3d d0 58 aa 3c
       0.06433546 0.08913948 0.07335928 0.020794302
000330 00 d0 d0 3d 7d 6e 77 3d be f1 06 bc 95 45 51 3d
       0.10195923 0.060408104 -0.008236347 0.05109175
000340 3e 3c c9 3c fb 77 d1 bb e1 60 d0 3c 7b 04 34 3c
       0.024564859 -0.0063924766 0.02543682 0.010987396
000350 73 0e 6b bd e6 a6 42 3d fb e2 b7 3d 0f a6 0e 3d
       -0.057386827 0.047522448 0.0897884 0.034826335
000360 e6 dd 55 3c e0 f2 89 bc 78 a5 84 3c 44 b9 56 3d
       0.013053393 -0.016839445 0.016192183 0.052422777
000370 37 18 1d bd a9 e6 c0 bd 0a 9c b7 3c 91 0b ab 3d
       -0.03835317 -0.09418995 0.022413272 0.083518155
000380 5f c2 3f bb f8 5c a7 bc e8 d8 7d bd ce 1d 9c bd
       -0.0029260141 -0.020430073 -0.061974436 -0.07622872
000390 89 50 83 3d f4 d0 94 3d 45 47 3b bd c5 28 65 bc
       0.06411845 0.07266417 -0.045722265 -0.013986771
0003a0 8e ef 6d 3d 62 38 f5 3d 5a 21 de 3d c7 68 45 bd
       0.058089785 0.11973645 0.10846205 -0.048195627
0003b0 fc 14 c2 bd 46 65 8d 3d 83 1b ed 3d 17 66 a8 3d
       -0.09476659 0.06904082 0.11577513 0.08222597
0003c0 e8 61 8b bd 82 6c 95 bd 58 17 84 3d 40 6a e1 3d
       -0.068057835 -0.07296087 0.06449765 0.11006594
0003d0 aa b6 35 3e 89 e3 4b be 68 15 b0 bd 51 09 9d bd
       0.17745462 -0.19911017 -0.08597833 -0.076677926
0003e0 2b 11 6a 3d 2d 06 12 3e 2b ca a9 3d e1 df 4d bc
       0.05714528 0.14260168 0.082905136 -0.012565584
0003f0 79 e5 9d 3d 02 02 5e 3d f3 81 ad 3d 39 13 f7 bd
       0.07709784 0.054201134 0.084720515 -0.12064213

conv2.bias f4 [16]
000000 b7 c9 bb be 28 e6 62 3f 69 1e 04 be f6 8c 3a 3f
       -0.36677334 0.8863244 -0.12902226 0.7287134
000010 dc 83 03 3f cb 26 d2 be e6 15 04 3f 56 1c ec 3d
       0.51373076 -0.41045222 0.51595914 0.11528842
000020 7d 37 9a bc a8 c2 ca bd 8f b0 29 3f 5f 90 26 bf
       -0.018825287 -0.09900409 0.6628503 -0.6506404
000030 72 d9 27 bf 10 74 76 3b 8a 7e af be 06 4b ec 3e
       -0.6556617 0.00376058 -0.3427623 0.46150988

fc1.weight f4 [120, 400]
000000 87 c7 03 3d f5 88 4d bd a0 6c bc bc eb e0 fb bc
       0.032172706 -0.05017944 -0.023001015 -0.030746898
000010 8d 80 02 3e 3d 2f c4 bb 0a 36 90 bd fd 5b ba bd
       0.1274435 -0.0059870766 -0.07041557 -0.090995766
000020 d7 40 3b 3b 50 4f 9c 3a 6b 3c 99 bb b7 ca ad bd
       0.0028572583 0.0011925492 -0.004676392 -0.084859304
000030 9b 72 ed bc 66 71 fd 39 b7 ef 3f bd 2c f3 20 bc
       -0.028985312 0.0004834041 -0.04685947 -0.009823602
000040 c3 9c 37 bd c8 10 53 bd 8b da 9b bd 82 b3 ab bd
       -0.044827234 -0.051529676 -0.07610043 -0.08383848
000050 81 26 87 bc f3 ad 74 bd 37 e5 60 3d 12 61 55 3c
       -0.016497852 -0.059736203 0.054906096 0.013023632
000060 b0 4d 3d bc 26 38 1a 3d 28 f3 3f 3d ee 58 b2 bc
       -0.011554167 0.037651204 0.04686275 -0.02177092
000070 72 c2 c8 3c 0b c1 fc b9 b1 60 ca bc ba 65 38 bd
       0.024506781 -0.00048209014 -0.02470431 -0.04501889
000080 da 32 d9 bc ae 4f ba bc 9f 4d 58 3d 53 ce 65 bd
       -0.026513506 -0.022743072 0.0528084 -0.05610497
000090 5d a2 ec bc 05 61 c7 bc 88 dc 38 bd 96 4f 31 3c
       -0.028886015 -0.024338255 -0.04513219 0.010822197
0000a0 d0 c6 38 bd 03 ac dd bc 31 9e ba bd 6c 10 9b bc
       -0.045111477 -0.02705956 -0.09112204 -0.018928729
0000b0 6b 3e 94 3c 96 a3 c9 bd 83 56 0a bd c4 39 c7 bc
       0.01809617 -0.09845655 -0.03377391 -0.024319537
0000c0 b1 c7 9b ba 14 66 21 3d 2b 89 0b 3e a2 07 18 3c
       -0.0011885074 0.03940399 0.13626544 0.009279164
0000d0 57 1e f9 3c b9 2e 32 bd f0 19 93 3c 27 8c 19 bd
       0.030409975 -0.04350159 0.017956704 -0.037487175
0000e0 f0 aa 9b bc 5f 82 a2 bd 31 27 95 bb c0 e1 1c 3d
       -0.019002408 -0.079350226 -0.004551791 0.03830123
0000f0 1f 72 15 3d 70 1d d3 3c 2a 86 56 bc c6 c8 79 3b
       0.036485787 0.025770873 -0.013093511 0.0038114055
000100 99 58 0c 3d 46 ff 16 bc 97 7c 7e 3b fe c3 89 bc
       0.03426418 -0.009216135 0.0038831586 -0.01681709
000110 ef 16 31 bd 4b 05 e6 3c 90 8e 15 bc 9e 86 87 3c
       -0.04323476 0.028078696 -0.009128228 0.016543683
000120 08 18 a0 bc 35 8c 2b bd 76 90 03 3d d5 a5 8e bd
       -0.019542709 -0.04188176 0.03212019 -0.06965224
000130 81 6c 0d bd 83 b5 8a 3c c8 83 d1 bc 58 f8 37 bd
       -0.034527306 0.016932255 -0.025575534 -0.044914573
000140 c4 ed 25 bc 04 cf 26 3d 6e 8e 52 3d ab 05 84 bc
       -0.0101274885 0.04072477 0.051405363 -0.016115984
000150 60 e9 46 bd 61 b1 a0 3c 97 d8 85 bc bf 54 50 3d
       -0.048562407 0.01961583 -0.01633863 0.05086207
000160 aa c7 8c bb 24 6d 39 bc 2e ab 9e 3c 1c 06 c6 3a
       -0.0042962627 -0.011317525 0.019368734 0.0015108022
000170 85 be 13 39 fc 13 89 bc 46 ce 87 bd 63 b2 48 bd
       0.00014089987 -0.016733162 -0.066311404 -0.048998248
000180 db 28 f9 3b 4c 1b a9 bc 84 4c e5 bc 93 da 41 bd
       0.0076037473 -0.020642899 -0.027990587 -0.04732759
000190 04 e0 91 3d 11 7a af 3c 56 14 43 3d 9f b6 18 3d
       0.07122806 0.02142051 0.047626816 0.037283536
0001a0 8f 9d 14 bc 2a 93 e4 3c e1 04 50 3d a4 8c dc ba
       -0.009070768 0.027902205 0.050785903 -0.0016826582
0001b0 2c 90 a6 bc 2c 8c 27 bd 6d 4c df 3c f3 4b 63 bc
       -0.020332418 -0.040905163 0.027258122 -0.013873088
0001c0 a5 df 28 bd 8c b0 e6 3c 09 ba 2f 3b 52 a2 ae 3c
       -0.04122891 0.028160356 0.0026813766 0.021317635
0001d0 06 2f 57 3c 79 5b a1 3b 16 2d 3f bd 50 24 f3 3c
       0.01313377 0.0049242345 -0.046673857 0.029680401
0001e0 03 bb 52 bc 1c 84 65 bd 0e d4 d1 bc ba 09 c2 bc
       -0.01286197 -0.056034192 -0.02561381 -0.023686279
0001f0 2b 18 93 bd 84 6a 5e 3d d7 b1 c1 3c 5c e5 e8 3c
       -0.07182344 0.0543008 0.023644371 0.02842968
000200 f4 c0 c7 3c 68 9c 92 3d 7f 1c ac 3c f3 2c fc bc
       0.024384 0.071587384 0.021009682 -0.030783152
000210 84 f5 90 3b 22 68 13 bc db 1d 6e bb 23 1e 52 39
       0.004423799 -0.008996995 -0.0036333713 0.00020038387
000220 43 f5 52 bc 5c 18 14 3c ed c6 bc bc 32 d5 c5 3d
       -0.012875858 0.009039011 -0.023044074 0.096598044
000230 9a 36 00 3d a7 47 3b bd c0 62 f3 3b 34 0c 91 3d
       0.031302072 -0.04572263 0.0074275434 0.07082406
000240 45 4a a5 3d 70 28 01 bd 9a fb 0c bd 1f 6d 6a 3c
       0.080708064 -0.031532705 -0.034419633 0.014308243
000250 db 5d 2f 3d 7a 68 8e bc 6b 3d 89 3c 72 8d ed bc
       0.042814117 -0.017383803 0.01675292 -0.02899811
000260 ad 68 d5 3c e7 d8 58 3b 02 1c 9a 3d e8 3c 6f 3d
       0.02605089 0.0033088268 0.07524873 0.058407694
000270 c7 0d ea 3c 78 78 8f bc b7 70 bf 3c 67 a1 5c bc
       0.028571023 -0.017513499 0.023369176 -0.013466216
000280 03 94 7e 3d cb 5e a2 bc e3 7f 08 3d ce 9d f5 3c
       0.062152874 -0.019820591 0.033325087 0.029982474
000290 68 ee 58 bc 80 26 10 bd 32 0e e9 3b 23 a6 b9 3c
       -0.013240434 -0.035192966 0.007112288 0.022662228
0002a0 e8 1b 31 bd 5f 3f 02 bd 82 a9 a6 3c e8 64 5a 3b
       -0.043239504 -0.031798717 0.0203445 0.0033324305
0002b0 36 76 fa bc b9 fd 61 bd cc 9d 6d bd c0 cb 84 3c
       -0.030573945 -0.05517361 -0.058011815 0.016210437
0002c0 1d e0 bf 3c b5 4f 31 3c 3e e4 ee 3c 09 ee 2c bc
       0.023422295 0.010822226 0.029161569 -0.010554799
0002d0 11 3c a1 bc f3 1a 03 bb 35 58 01 3d 00 52 5f bc
       -0.019681962 -0.0020005077 0.03157826 -0.01363039
0002e0 73 65 fd bc 64 bf 9e bc e4 be 2c bd 61 99 49 bb
       -0.030932164 -0.019378372 -0.042174235 -0.0030761587
0002f0 ce 30 74 3c 82 96 59 bd 93 17 05 3d db 16 54 3d
       0.014904214 -0.05312205 0.032493185 0.05177961
000300 64 7d fc 3c 71 7d ee 3c 8b 1a 35 bd 2d 21 6d bc
       0.03082151 0.02911255 -0.044214766 -0.014473242
000310 c7 a9 4e bc 4c 38 0c 3d 03 82 8f bd c8 11 2e bd
       -0.01261372 0.034233376 -0.0700722 -0.042497426
000320 87 5c a1 bd d5 0c 0b bd 77 8a 3a bc 29 04 e2 3c
       -0.07878976 -0.033947784 -0.011385552 0.027589874
000330 06 11 eb bc 64 8e 15 bd 4e af 14 3a 85 24 8f bd
       -0.02869464 -0.036512747 0.00056718744 -0.069893874
000340 91 24 84 bd 4c b1 9a bc 90 7d c7 bc be 12 75 3c
       -0.06452287 -0.01888337 -0.024351865 0.014958082
000350 5b 82 10 bb 31 30 62 bc d3 87 b5 bc c5 d8 b0 3d
       -0.0022050354 -0.013805435 -0.022159493 0.086350955
000360 2b 6a 8e 3d 2b fd e2 bb 7b 6e 18 3d ff ba bf 3d
       0.06953844 -0.0069271526 0.037214737 0.093618385
000370 8d 5e 9f 3c 90 f4 ba 3c e6 89 a3 3c 08 d8 49 3c
       0.019454265 0.022821695 0.019963216 0.012319572
000380 47 b6 bb 3d 77 9c 3f bc 16 28 00 bc a1 c8 8e bc
       0.09165626 -0.011695019 -0.007822057 -0.017429652
000390 e2 71 3c 3c 9a 19 fd bc d0 35 71 3d af 89 de 3c
       0.011501761 -0.030895997 0.05888921 0.027165262
0003a0 d9 c0 55 3c c7 75 07 bd 89 37 ba bd f5 4d 44 bc
       0.013046467 -0.033071306 -0.09092624 -0.011981477
0003b0 70 2d 7d 3a 5f 7e a0 3c 62 15 61 bd 87 30 e2 3b
       0.0009657955 0.019591508 -0.054952033 0.0069027576
0003c0 91 a8 9f 3d f5 db c8 bb a9 bb 2c 3c 88 34 c2 bb
       0.07795823 -0.0061297365 0.010542789 -0.0059266724
0003d0 7f 5b 9b bc 89 6e 20 3d 41 ed 45 bc 47 f1 87 bc
       -0.018964527 0.039167915 -0.0120804915 -0.016594542
0003e0 38 db 78 bc c2 df 4f bd 2f f3 21 bd bc e3 52 bd
       -0.015188985 -0.0507505 -0.03953856 -0.051486716
0003f0 29 33 85 bb 93 01 81 bd 3f c5 85 bd 69 f8 51 3d
       -0.0040649367 -0.062991284 -0.06531762 0.051262293

fc1.bias f4 [120]
000000 b7 3a 25 bb 51 6a 99 3c f1 46 bb bd 17 c0 b2 bc
       -0.0025211999 0.018727453 -0.091443904 -0.021820111
000010 ca a9 6f bc a0 ec 9e bd b4 48 c3 3c 17 39 da 3d
       -0.014627883 -0.077599764 0.023838378 0.1065542
000020 9c c4 85 3d f2 5f a5 3d 89 f5 e3 3b ca 87 56 bd
       0.06531641 0.08074941 0.0069567603 -0.052375592
000030 80 da 03 3e 3d 2a 8a 3a 84 18 88 3c cf 95 c6 bd
       0.1287632 0.0010541152 0.016613252 -0.096965425
000040 39 2e 2d bd 03 3e 08 3b 56 84 ad 3d b7 78 d2 3d
       -0.04228041 0.0020788915 0.08472507 0.10276931
000050 ac 68 79 3c b8 c1 b1 3c 4c 0e 24 3d f8 e0 0d bc
       0.01522271 0.021698818 0.040052697 -0.008659594
000060 be 10 1d 3d 67 8c 05 3e 3c dc 18 bd 52 15 30 3d
       0.038346045 0.1304184 -0.037319407 0.042989083
000070 97 63 22 bd b5 df 04 3e 9b 74 db bd fd 55 ec ba
       -0.039645758 0.12975962 -0.107156 -0.0018030998
000080 1e ca 04 bd 36 82 a9 bc 61 9f 22 3c 6a c4 e8 bc
       -0.032419316 -0.020691972 0.009925694 -0.02841397
000090 5c b6 6a bb 1a ec 8a 3d f9 96 4b bd 15 d2 09 bc
       -0.003581426 0.06783314 -0.049704526 -0.008411904
0000a0 aa 2b 4a 3c 2c 14 89 3d fe 24 bd 3d 80 04 25 3e
       0.012339512 0.066933006 0.09235571 0.16114998
0000b0 d8 ab 2e bd fe 2f 0d bd ec 98 95 3d de 38 6b 3d
       -0.04264435 -0.034469597 0.07304558 0.05742728
0000c0 f0 06 65 bc f2 d5 47 bc 62 e3 7d bd d0 2d 56 bd
       -0.013978705 -0.012197005 -0.061984427 -0.052289784
0000d0 5a 1e f8 3d b0 10 bf bc d5 ad c5 3c da b0 36 3c
       0.12115164 -0.023323387 0.024130741 0.011150563
0000e0 23 41 fa 3d 98 2a 68 3d 67 ae 04 bd de 93 9d bd
       0.12219455 0.056681246 -0.032392886 -0.07694219
0000f0 b7 72 1d bd 8f be cf 3d a0 7c 53 bd ed 42 c9 3c
       -0.03843948 0.10143768 -0.051632524 0.024568046
000100 f1 a5 2c bd 61 17 53 3e 3d b9 eb 3d d2 a6 e9 3d
       -0.04215044 0.20614387 0.11509941 0.114087716
000110 62 50 f4 bc 68 0f 5f 3d 06 b3 4f 3d 14 e4 f4 3c
       -0.029823486 0.054458052 0.05070784 0.029893912
000120 ff 06 bb 3d 57 db af bd be 4d 0e 3e 48 d3 92 3c
       0.09132194 -0.08586758 0.13896844 0.017923012
000130 c4 3a 92 bc dc ee 38 3d de db b2 3d 94 e1 79 3b
       -0.017850287 0.04514967 0.087333426 0.003812884
000140 90 c6 a5 bc c5 79 86 bd 20 e9 80 bc 55 b0 f6 3c
       -0.020236284 -0.065661944 -0.015736163 0.030113379
000150 e9 6d 30 3d 99 ef e9 3d 45 84 9f 3d 30 72 8d bd
       0.04307357 0.11422653 0.077889 -0.06906545
000160 51 2f 86 bd 58 68 88 bd 86 00 1c bd a8 33 43 3b
       -0.06551994 -0.06660527 -0.038086437 0.0029785428
000170 92 9f 99 3c 44 95 fa 3a d7 52 c1 bd a1 42 1f 3e
       0.018752847 0.0019117971 -0.094396286 0.1555276
000180 99 ee 20 bd 28 43 5c bb 2f 00 0e bd 5f 2b bf bc
       -0.039290044 -0.0033609364 -0.034668144 -0.02333611
000190 a4 f2 15 3c 57 d1 28 bd 5f 63 81 3e e8 be 21 3e
       0.009152088 -0.041215267 0.25271127 0.15795481
0001a0 04 fb 77 3b 90 aa 31 3e 83 f0 2e 3e 2f 29 00 3e
       0.0037838826 0.1735022 0.17083935 0.1251571
0001b0 97 4b 08 3e c3 3e 4b bd 3b 4b da 3d bf 7d 8f 3d
       0.13310085 -0.0496204 0.1065888 0.07006406
0001c0 fd 3d 46 bd c3 80 8e 3c c5 8d 0d 3e 29 a7 0c bd
       -0.04839896 0.017395383 0.13823612 -0.034339104
0001d0 39 60 27 bd ea 5f a9 bd 8d e6 33 bd e1 21 80 bc
       -0.04086325 -0.08270247 -0.043921042 -0.015641155

fc2.weight f4 [84, 120]
000000 80 13 27 3d cf 23 06 3d a8 a8 78 3c e0 e2 bb 3d
       0.04079008 0.032748993 0.0151769295 0.09174132
000010 ed 83 8c 3d dc 0d 8f bd 37 60 06 3e f4 c5 f5 bc
       0.068611 -0.06985065 0.1312264 -0.030001618
000020 f8 90 6d bd d5 11 64 3d 88 8b 31 3c 5e 5c 94 bc
       -0.05799958 0.05568107 0.0108364895 -0.01811045
000030 aa 87 8c bc 7d f6 57 bd 75 9a d5 bc 67 08 d3 3d
       -0.017154533 -0.052725304 -0.026074627 0.10304337
000040 c2 99 89 bd 14 b1 b9 bc 87 52 f9 bb 98 f2 5a 3d
       -0.0671878 -0.022667445 -0.007608715 0.05345401
000050 ea 19 a7 ba df 75 11 bd f7 07 1f bd ef f7 82 bd
       -0.0012748812 -0.0355128 -0.038825955 -0.06394946
000060 36 1b da ba 56 fa a1 bd bb d0 bb bd ac 09 cf bc
       -0.001664019 -0.07909076 -0.091706716 -0.025273167
000070 0d d4 9a bd b9 04 29 3a 4a 50 56 3d 8b b4 89 bd
       -0.07559977 0.0006447542 0.052322663 -0.06723889
000080 5a 58 ca 3d 74 4e ae 3d 79 a9 89 3d 8e b4 f7 3a
       0.09880133 0.085110575 0.067217775 0.0018898414
000090 1d 1d 9f bd 93 01 7e bc 28 cd 3b 3c a9 63 ca bc
       -0.07769225 -0.015503305 0.011462487 -0.024705725
0000a0 ca 22 00 bd 9e e9 12 3d c1 c9 53 bd c4 3c 9b bd
       -0.031283177 0.035867326 -0.05170608 -0.075799495
0000b0 1b 2b 94 bd be 0b 67 3d 8f 3a d3 bc 45 e0 92 bd
       -0.07234784 0.056407683 -0.025784759 -0.07171682
0000c0 95 26 e8 3c 34 9e 58 bd 85 af fa 3c 81 da a4 bc
       0.02833871 -0.05288525 0.030601272 -0.020123722
0000d0 a5 9f 85 3d 37 eb 16 3b ea f4 99 3d 33 cd 09 bd
       0.065245904 0.0023028383 0.07517417 -0.03364296
0000e0 0e cf 98 bd 2b 67 f2 3d d8 e7 aa bd 9d b7 2c bd
       -0.074613675 0.11836084 -0.08345002 -0.042167295
0000f0 bf dd 3c bc c3 dc 30 3d 30 b1 74 bb 92 62 5b bd
       -0.011527478 0.043179285 -0.0037337057 -0.0535608
000100 5e b5 90 bb 89 a5 5a 3d da 93 42 3d 01 81 45 3b
       -0.004416152 0.053380523 0.047504283 0.0030136707
000110 d0 6f 12 ba 02 2b 2b 3d 1b 68 1c bd ed 9b b4 3c
       -0.00055861194 0.041789062 -0.03818522 0.022047007
000120 ed a1 ad bd 08 ec 88 bc ab 39 59 3d 08 5e 38 bc
       -0.084781505 -0.016714111 0.053033512 -0.011252888
000130 42 6e f9 bc e6 40 e6 3c 74 fe b3 bd 2c a6 f6 3c
       -0.030448083 0.028107118 -0.087887675 0.030108534
000140 14 f1 03 3d 8f 5d 09 be 64 28 ca bd 70 04 b4 bc
       0.032212332 -0.13414596 -0.09870985 -0.021974772
000150 1f a7 92 bd 8c db 0a 3d 79 ba d6 3b a3 e9 5e bd
       -0.07160782 0.033900782 0.006552991 -0.054422032
000160 c1 eb a0 3d 05 65 7e 3d 4c 55 37 bd a7 94 c0 bc
       0.078574665 0.06210806 -0.04475908 -0.023508383
000170 ea 83 db bc 94 32 a3 bc f9 fa 8e 3b f4 e3 43 3d
       -0.0267963 -0.019921578 0.0043634144 0.047824815
000180 2f 54 2a 3d 11 11 65 bd da cc 6c 3d 07 3f b4 3c
       0.04158419 -0.05592448 0.05781255 0.02200271
000190 2c 82 35 3c 04 7c 87 bd ea ad c6 bd a5 5a ca 3d
       0.011078399 -0.06615451 -0.0970114 0.0988057
0001a0 b9 db 31 bb e0 54 13 bc d7 61 b6 3d 41 6e 94 bd
       -0.0027139022 -0.008992404 0.0890538 -0.07247592
0001b0 95 74 bd 3d e1 c3 5c bd b8 43 ce bd 8d 4c 5e 3d
       0.09250752 -0.053897742 -0.1007151 0.054272223
0001c0 ae 87 8b 3d a6 3b 00 3d e3 ea 9d 3b 66 a2 89 3d
       0.06812988 0.031306885 0.0048192604 0.06720428
0001d0 32 d6 bc 3b 87 aa f3 3c 19 2f b2 bc 9b 36 42 3d
       0.0057628388 0.0297444 -0.021750974 0.047415357
0001e0 0b 33 c9 bc b4 e4 59 3d 24 58 b8 bc e6 2e b3 3d
       -0.024560472 0.053196624 -0.022502966 0.087491795
0001f0 bc 74 be 3d 8a 65 72 3a 7f 73 05 3e 57 d4 33 bd
       0.09299609 0.0009246698 0.1303234 -0.043903675
000200 f4 1c 14 bd a4 b9 83 3d c8 a8 de 3c 49 5d 63 3d
       -0.036160424 0.064318925 0.02718009 0.055508886
000210 cc fe c7 3d 4e 2c 6f bd 3f 41 f5 3d f1 00 f1 3d
       0.097653955 -0.05839186 0.11975335 0.11767758
000220 56 f2 3d 3d df b7 03 be 38 b3 ab 3d 86 58 98 bd
       0.046373688 -0.1286311 0.08383793 -0.074387595
000230 9a c5 0b be 73 36 a1 bd 26 09 5b 3d a5 77 c3 3d
       -0.13649598 -0.078717135 0.05347552 0.09544305
000240 04 36 ce 3d 90 f1 6c 3d 47 f1 7a bd 31 70 96 bd
       0.100688964 0.05784756 -0.061265256 -0.073456176
000250 05 3d 43 bd 8c df 15 3e e0 ba e3 bc b6 07 42 bd
       -0.047665615 0.14636058 -0.02779907 -0.047370635
000260 56 7f 8b bd a9 4c 19 3e 68 fe 43 3d 9d b8 3e 3e
       -0.06811397 0.1497065 0.047850043 0.18625112
000270 cf ca 8c bd 21 2e db bc 5d 82 6a bd 13 61 e1 3d
       -0.0687462 -0.026755394 -0.05725323 0.110048436
000280 96 31 0a be 86 28 c5 bc 0d 63 97 3d 76 ec 47 3e
       -0.13495478 -0.024067175 0.07391939 0.19523796
000290 65 39 71 bd 2b 14 b1 3d e7 4f cf bd 32 fc 47 3d
       -0.058892626 0.08646425 -0.10122662 0.048824497
0002a0 21 7a 11 be 5a c9 64 3b a3 44 ca 3d 0f 13 bb 3c
       -0.14206745 0.0034910054 0.09876373 0.022836236
0002b0 eb 91 0c 3e fd f1 4d bd d0 13 bd 3c 90 a1 32 be
       0.13727538 -0.050279606 0.023080736 -0.17444444
0002c0 40 22 f7 bd b8 e5 58 bd 00 83 8f bd c1 a3 c4 bd
       -0.120670795 -0.052953452 -0.07007408 -0.09601546
0002d0 a4 d3 89 3b 86 21 ee bd 61 12 ff bc 6e dc 2e 3d
       0.0042061377 -0.11627488 -0.031136693 0.042690687
0002e0 f6 58 d3 3d 65 63 f3 3d ca c8 51 be 7d a5 0e 3e
       0.10319702 0.118841924 -0.20486751 0.13930316
0002f0 18 84 f6 bb 51 ce 11 bd ae a1 bb 3c 68 76 59 3d
       -0.007523071 -0.03559715 0.022904243 0.053091437
000300 64 ba e9 3d 75 14 7c 3c 9d 12 3a 3c fc f3 6a 3d
       0.11412504 0.015385737 0.011356977 0.057361588
000310 37 0f f6 bc 3a 65 1f bd 31 80 50 3d 52 32 75 3c
       -0.030036552 -0.038914897 0.050903503 0.014965611
000320 f1 e0 d6 bc 39 b3 f8 3b dd 21 aa 3d 60 69 7a 3c
       -0.026230307 0.0075897244 0.0830724 0.015283912
000330 05 75 0f be d8 31 91 bd 1d a8 6e bd 02 b7 8d bd
       -0.14009483 -0.07089585 -0.058265794 -0.069196716
000340 6b b1 7f bd f8 4d b0 bc 45 79 6d 3c 4e 26 9c bd
       -0.06242506 -0.021521553 0.014494245 -0.076244935
000350 70 16 92 bd dc ae 40 3c 34 ca ee bc 08 84 a7 3d
       -0.07133186 0.01176044 -0.029149152 0.0817948
000360 bb e1 4d 3d 10 0a 54 bd 3d c2 c9 bd bb 45 bd bc
       0.0502641 -0.05176741 -0.09851501 -0.02310454
000370 e7 89 9c 3d 1c 1c 8a 3b d9 c4 d0 3d 4e 6e 3a 3e
       0.0764349 0.0042147767 0.10193796 0.1820614
000380 ab ab 1a bd 45 f9 8b bc 05 25 94 3c 79 1c f9 3d
       -0.03776137 -0.017086634 0.018084059 0.12163634
000390 ed 18 d7 bc 2c bf 2a 3d db 41 c6 bd 17 27 d5 3d
       -0.026257003 0.041686222 -0.0968053 0.104078464
0003a0 17 67 83 bd a3 3b fe 3d cc 32 17 3d 75 6d a8 bc
       -0.06416147 0.124137186 0.036913678 -0.020560006
0003b0 88 99 fa 3b a4 3b dd 3c 8e 3d 20 bc 9c d4 53 3d
       0.007647697 0.027005978 -0.009780301 0.051716432
0003c0 8a 03 a3 bd 80 85 9b bc 95 30 ba 3d d2 a6 3d bd
       -0.079596594 -0.018984556 0.090912975 -0.04630167
0003d0 c5 77 8b bd c4 a2 f2 bc bf e0 90 bd 5d 9a 01 bd
       -0.068099536 -0.029618628 -0.07074117 -0.031641353
0003e0 61 d4 0a 3e ae 51 52 3d 02 14 8b bd c0 83 9f bd
       0.13557579 0.051347427 -0.067909256 -0.07788801
0003f0 a1 bb de bc 1b 03 90 bd 5e 6b ab bd 1a 70 5c bc
       -0.027189078 -0.07031842 -0.08370088 -0.0134544615

fc2.bias f4 [84]
000000 74 df 47 3c 3c 97 a0 3d e4 45 02 3e 19 9a e0 bd
       0.0121992715 0.07841346 0.12721974 -0.10966892
000010 48 a1 89 bd 5b 48 01 3e 4a 0c 89 bd d8 8f 17 3e
       -0.06720215 0.12625258 -0.06691797 0.14800966
000020 2e 93 11 3b 8f b5 67 3e e2 cd 14 3e 6b 7e 83 3e
       0.002221297 0.22627853 0.14531663 0.25682387
000030 a8 98 6c bd 8c 8e a5 3b fc 62 88 bd 3a 03 d8 3b
       -0.05776277 0.0050523933 -0.06659505 0.0065921815
000040 96 0d 0f 3e a3 b8 e4 3c e5 87 02 3e c3 e0 aa bd
       0.13970026 0.027920073 0.12747152 -0.08343651
000050 84 e8 69 3e b4 06 59 bc b2 93 a1 bd ab ed 10 3d
       0.22842604 -0.013246227 -0.07889499 0.035382908
000060 25 7f a2 bd 0e d9 33 bd 54 0a 91 3d 80 8f e9 3d
       -0.07934407 -0.04390817 0.07082048 0.114043236
000070 18 81 92 bd 22 cb ac 3d e9 4f 92 3e 2c 7e ed 3e
       -0.07153529 0.08437182 0.28576592 0.46385324
000080 05 6d 6f 3d 2f 48 f3 ba 4d d7 00 bd 0d 8d 66 3d
       0.05845358 -0.0018560941 -0.031455327 0.05628686
000090 93 08 b2 bc 20 a9 86 3e dc 6d a1 bc f9 4f 42 3e
       -0.021732604 0.26300907 -0.019705705 0.1897582
0000a0 ec 76 c2 3c 14 f8 05 bd cb c8 c4 bd 61 e2 7e bd
       0.023738347 -0.03270729 -0.09608611 -0.06222761
0000b0 f0 1f 83 bd 23 80 4b bd 06 c2 82 b9 71 96 f4 3d
       -0.06402576 -0.049682748 -0.0002494009 0.11942757
0000c0 31 f8 a9 bd 9f 44 95 bd ed df 01 be c6 1a 74 bd
       -0.08299292 -0.07288479 -0.12683077 -0.059595846
0000d0 dd 7e 82 3d 12 a2 6e bc e5 2d 6b bd 51 95 80 bd
       0.063718535 -0.014565008 -0.057416815 -0.0627848
0000e0 2f 77 1f 3d f3 52 7c 3a e8 76 87 3d 24 27 01 bd
       0.03893202 0.00096253975 0.066144764 -0.031531468
0000f0 72 7b 36 bd ba cc 92 bc ab da 1e bd bf 76 bf 3d
       -0.04455132 -0.017919887 -0.038782757 0.09348821
000100 19 01 9a 3d 5f 9a a5 3e 46 f3 8c bd 92 57 0e 3f
       0.075197406 0.32344338 -0.06882338 0.5560237
000110 86 05 51 3e 68 59 3e 3d b7 23 71 bc b3 3a 9a bd
       0.20412263 0.046471983 -0.014717988 -0.07530727
000120 44 b8 b3 bc 24 4c 8b bb cc a3 1a bd a4 66 92 bb
       -0.02193845 -0.00425102 -0.037753865 -0.004467802
000130 0e af 12 3e ec de 5c 3e 0f b5 9f 3e 47 e9 98 bd
       0.1432459 0.21569413 0.31192824 -0.07466369
000140 28 f9 38 3c 09 f5 d8 3d 78 ee e4 3d 44 48 86 3e
       0.011289872 0.10593612 0.11178297 0.2622701

fc3.weight f4 [10, 84]
000000 eb ea 80 bd d2 4a 64 be 2e 5c 2c be 70 6b 84 bc
       -0.06294807 -0.22294167 -0.16832039 -0.016164511
000010 45 1e 32 ba bf 7a 52 bc ab f0 76 3d f6 db a4 3d
       -0.00067946716 -0.012846648 0.060288113 0.08049767
000020 5c 99 ab bd 97 0e dd bd ad d9 9b bc 35 ee a2 bd
       -0.0837886 -0.107937984 -0.019024694 -0.07955591
000030 cf b9 74 bd 2e 8e e9 bc 1e 55 9f bc 07 6c 1b 3d
       -0.059747513 -0.02851018 -0.019449767 0.03794482
000040 c2 40 4f be b1 14 34 bb 7a 9d e3 3e 2c fc 34 3d
       -0.20239547 -0.0027478153 0.44456083 0.044185802
000050 ea d1 32 be 20 23 83 3d 89 03 ce 3c 61 99 75 3e
       -0.17462888 0.06403184 0.02514817 0.2398429
000060 93 e2 65 3e c0 b5 09 bc 9b 0d 48 3e a2 48 ba 3c
       0.22449712 -0.008405149 0.1953644 0.022739712
000070 8c 29 d2 bd 95 6e d4 3d 65 72 7f 3d 54 59 0d be
       -0.10261831 0.10372654 0.062364955 -0.13803607
000080 e8 89 80 3c 15 25 e6 bc 62 49 25 3d 85 87 0b 3d
       0.015690759 -0.028093854 0.040353186 0.03406479
000090 13 b7 26 3c b1 3f 98 3d 00 12 88 bd 21 05 84 bc
       0.010175484 0.07434023 -0.06644058 -0.016115727
0000a0 99 4d 1f 3d e0 e5 46 bd e9 ec 33 3e 98 02 4e bc
       0.038892362 -0.04855907 0.17570843 -0.012573861
0000b0 2e 03 6a bd 03 13 da 3d 94 ad a5 3c 1b 07 dd 3d
       -0.05713194 0.106481574 0.02022437 0.10792371
0000c0 48 39 a3 bd 9a 30 27 3c 7f 3b 9e 3e ba 26 dc 3d
       -0.0796991 0.010204459 0.30904767 0.10749574
0000d0 22 fc b6 3a aa dc c5 3c 4c 9c a5 3d 29 d7 3c bd
       0.001396064 0.024153072 0.08086452 -0.04610363
0000e0 92 e7 cd 3d 27 76 e8 3d a9 73 99 3d 1c 49 c3 3d
       0.10053934 0.11350661 0.074927635 0.09535429
0000f0 8d f3 47 3c 2b d5 a0 3d c4 f6 10 bd 01 85 5f 3e
       0.012204063 0.078531586 -0.035391584 0.2182808
000100 e5 7b d2 bd 92 95 7a 3d 50 2d 26 be 75 7a c8 be
       -0.10277537 0.061177798 -0.16228223 -0.39155927
000110 ee ce 4d be 26 cf 92 3e 13 94 1e 3e 0c 3b 1e bd
       -0.20098469 0.28673667 0.15486173 -0.03863053
000120 87 2f a5 3d 9c 20 a6 bd 22 27 6f 3c 09 12 3d 3c
       0.08065706 -0.081116885 0.014596732 0.011539944
000130 ea 70 1e 3d e4 16 33 bd 2a 3a 66 3e ab 7d c1 3d
       0.038681902 -0.043723002 0.22483125 0.094477974
000140 48 17 8e bd 55 74 6b bd 40 83 95 3b 27 cb 5c 3c
       -0.06938034 -0.05748399 0.0045627654 0.01347617
000150 70 fb 93 3c 00 f3 18 3e f5 58 6a bd 57 6c 75 3e
       0.01806423 0.14936447 -0.057213742 0.2396711
000160 44 47 fa bc c8 03 63 3e ef 3e cc 3d 45 5d 4e be
       -0.03055156 0.22169411 0.09972941 -0.20152767
000170 3f 78 77 bd 9c 4e 67 be 15 c5 3f bd 49 90 9f 3d
       -0.06041741 -0.22588581 -0.04681881 0.07791192
000180 45 2d d2 3d 49 01 dc bd 1a 04 96 3d 4e 79 c2 bd
       0.10262541 -0.107424326 0.07325001 -0.09495793
000190 0d f4 8b 3d 34 8c 02 be fd b9 e8 3b fe 2e 9b 3d
       0.06833658 -0.12748796 0.0071022497 0.075773224
0001a0 19 8b 13 be b5 4a 21 be 3d 02 f9 3d cc 0b 4f 3e
       -0.1440853 -0.15751155 0.1215863 0.20219344
0001b0 83 de db bd 84 e0 b4 bd a3 10 c7 3d 01 3e 4a 3e
       -0.107358 -0.088318855 0.0971997 0.19750215
0001c0 ad 00 41 bd 28 cf c7 3c c8 da 5e be 4a f3 d1 be
       -0.047119785 0.024390772 -0.21763146 -0.41005927
0001d0 27 c7 bb 3d c0 53 0b 3d e4 fb 32 be 84 60 f8 bc
       0.09168845 0.034015417 -0.17478901 -0.03031946
0001e0 0b c6 d3 bd 8d ca 4c be 7b 24 3b bd 5b ed 9e 3d
       -0.10340508 -0.19999142 -0.045689087 0.07760116
0001f0 aa 49 6e be cb 46 ab 3d 76 80 2f 3e 31 c0 d5 bd
       -0.23270288 0.08363112 0.17138848 -0.10437048
000200 c7 53 3e 3e 80 74 cb bd 42 1c 3a bd 33 3f 3f be
       0.18586646 -0.0993433 -0.045437105 -0.18676452
000210 9a 78 1b bd ab 86 93 3d d5 f2 82 bd 83 31 72 3c
       -0.03795681 0.0720342 -0.06393973 0.014782312
000220 d4 05 09 3d aa d3 50 bd 09 ae c9 3d d1 3e 51 bd
       0.033452824 -0.05098311 0.09847648 -0.051085297
000230 e8 be 91 bd 5a a2 bf bc 76 53 a9 bd 9d 3d 8d 3e
       -0.071164906 -0.023392845 -0.08267872 0.2758607
000240 f9 5b ec bd 20 63 1e bd a6 dc d7 bb 7d c8 61 3d
       -0.1154098 -0.03866875 -0.0065875826 0.05512284
000250 21 16 9c 3e 7a c0 97 be 95 33 f9 3d 55 1d a1 bd
       0.30485633 -0.29639035 0.121680416 -0.07866923
000260 4b e4 5a be 4a 3a a2 3e b3 d4 ad 3d 50 79 bf bd
       -0.2137615 0.31685096 0.08487835 -0.093493104
000270 aa 9b 20 3e 7b 14 c3 3b 1f 31 4f 3d 2b 6c dc 3c
       0.15684381 0.005953369 0.050583955 0.026907047
000280 c2 35 6c 3e 87 30 a4 bd 15 d1 9f be d1 4b 3e 3d
       0.23067382 -0.08017068 -0.31214204 0.046459023
000290 6b 21 db 3d e9 b5 43 be c2 72 30 3e 2c fb 8e be
       0.10699733 -0.19112362 0.17231277 -0.27926004
0002a0 8c 31 1c be 06 fc 50 bd 0a b2 01 3e 8a 73 09 3e
       -0.15253276 -0.0510216 0.12665573 0.13422981
0002b0 77 b6 14 bc a9 84 82 bd ca da 54 bd b7 a5 e5 bc
       -0.009076706 -0.06372959 -0.051966466 -0.02803312
0002c0 bf c9 11 bd 9c 06 9c 3e b6 50 ad 3e a5 4d 77 3c
       -0.03559279 0.30473793 0.3385064 0.0150941955
0002d0 7f 2e 96 3d 73 30 f9 bc 0e c9 76 3c 2d 46 8b bd
       0.07333087 -0.03041861 0.015062584 -0.06800494
0002e0 3b c0 12 be 5a ab ad 3b 14 2f 2e 3c 83 d2 4f 3e
       -0.14331143 0.0052999677 0.0106313415 0.20295148
0002f0 cf be 5f 3e c5 d1 43 3e b7 bf 51 bd 20 3e 1e 3d
       0.21850131 0.1912299 -0.051208224 0.038633466
000300 b7 6b c9 3d 82 3a bf 3d 5d ab af 3d 33 f4 4c be
       0.09834998 0.09337331 0.08577607 -0.2001503
000310 56 31 92 3d 02 f5 bc bd 88 da 37 3e 1a 04 31 3e
       0.07138316 -0.09226419 0.17954457 0.17286721
000320 bc 71 de 3c fe 37 db bd 45 24 1a 3e 38 c3 fa 3d
       0.027153842 -0.10704039 0.15052898 0.12244266
000330 47 a6 2d bd a1 21 91 3d d5 dc ef bd 9a c3 9c bd
       -0.042394903 0.07086492 -0.11712042 -0.076544955
000340 2e 5f 80 bd 29 8f 46 3d 62 b7 f7 3b 31 01 39 3d
       -0.06268154 0.048476372 0.0075597027 0.04516715
000350 1f 2b 01 3d bb d0 da 3d c0 09 12 bd 84 18 a0 3d
       0.031535264 0.106843434 -0.03565383 0.07817176
000360 7f 16 d1 3d 8d 5b a4 3b 24 24 64 3e bd 87 13 3d
       0.10209369 0.0050157965 0.22279412 0.036018122
000370 a6 fa 00 bc da f4 e8 bc 4e bd 95 bd 5e 63 c7 3c
       -0.007872259 -0.028437067 -0.07311498 0.024339374
000380 6a a5 1d bd b5 8d 78 3d 76 74 b7 bd 0e 5e 08 be
       -0.03848783 0.060682017 -0.0895776 -0.13317129
000390 7a 33 bf bd 36 ed 1c 3d cd d7 11 3d 15 a8 2a 3e
       -0.0933599 0.03831216 0.035606194 0.1666568
0003a0 e6 ce 37 be 83 69 0b 3e 96 c5 45 3e 8b 03 01 bc
       -0.17950019 0.13614468 0.19313654 -0.00787438
0003b0 47 a4 20 3d f2 f8 c4 bb 84 4d 28 be b6 9b 01 3e
       0.039219167 -0.006011122 -0.1643582 0.12657055
0003c0 f5 8f 22 be 17 37 1a bd e2 f1 3a 3d 17 90 df 3d
       -0.15875228 -0.037650194 0.045640834 0.10916155
0003d0 54 d4 46 be 76 13 09 be 1f 96 9a 3e 44 e3 45 3d
       -0.19416934 -0.1338633 0.30192658 0.04831244
0003e0 f5 75 89 bc 5b 4c 3d 3c d0 f6 90 3d fe 5e 41 3e
       -0.01677988 0.011553849 0.07078326 0.18883893
0003f0 01 97 8a bc 0c ed 34 3e c5 77 2a 3e 24 e9 68 bc
       -0.016917707 0.17668551 0.16647251 -0.014215741

fc3.bias f4 [10]
000000 b4 be 01 bf e1 fa ed be 09 70 b0 bc 0c ca 9c 3e
       -0.50681615 -0.46480468 -0.021537798 0.306229
000010 c1 1a 16 3f f9 fd f1 bd b1 dc cf 3e 8c f4 36 bd
       0.58634573 -0.118160196 0.40598062 -0.04466681
000020 0d d7 b5 3d e8 e9 92 be
       0.08878908 -0.2869408
