unet/output/unet_tgs_salt.pth (torch, 509970 bytes, 65 tensors)

weight f4 [16, 3, 3, 3]
00000000: ec88 7e3d aead 56bd 2cf3 bebd 4410 d63d
00000010: 2c48 e83d 3284 eabd ddf2 873d 7cb4 40bd
00000020: 64bc 523d 090d 763c ade8 b13d 2920 02be
00000030: 254c 21be d7b4 283e da48 77bd c5f2 b7bc
00000040: 437a 563e 07e4 0bbe 5128 413e f090 803d
00000050: f213 3fbe aa38 ffbd 01ab 39be 0c1e 2abd
00000060: d46c ed3d 755f 8cbd 95f1 533e 6377 2e3e
00000070: dc85 abbd 4bb4 993d 6ce0 143e 6470 843d
00000080: af06 e7bd ce93 dcbd fd8a 043e 3023 88bb
00000090: 2bda 30be 1db8 f73d 7374 adbd 9bc5 433d
000000a0: cb86 1d3e a2a4 bdbd 8c9d 23be 5909 cf3d
000000b0: b2b3 9ebd c4ac a4bd 241f 4c3b 11f0 b8bd
000000c0: 9781 803d 7ea9 123e b2f1 a1bc c469 12be
000000d0: 1055 093e 9bcd f33c dd0c 023e 38d9 06be
000000e0: f7d9 e8bd 7dda cc3d fba4 2d3d 8480 c13d
000000f0: 6c51 c73d 3ee5 d83d 2c4b d53c c012 11be
00000100: cfd3 9cbd d1b4 25be eae0 a6bc ad34 9abd
00000110: cc76 c23d 4f1a 2e3e 4c6a 87bd e2eb 233d
00000120: 0b69 1ebe 7ce9 7bbd 87a6 31be fa5d c5bd
00000130: 0f58 813d 2822 c8bd 7cdc f0bd c1a9 0d3e
00000140: fee1 29be 8960 373d f66f 25be 51da 65be
00000150: cf0c 42be 1f64 203e eb24 973d 41d1 233e
00000160: 741e 7d3e 92c0 abbd f1ac 3d3d b7e8 483d
00000170: 5453 303d 88a2 06be 542d a7bd b87f 9ebd
00000180: 1372 fd3c e27c 253d 65f9 ef3d 57fb 03be
00000190: 3ffd b33d 9941 56be abc8 a53b 2e25 273e
000001a0: b3f4 da3d a682 103e 8fb2 1d3e 5714 b7bd
000001b0: 746d 0e3e 62a2 f2bc 5e61 3bbe 902a ff3d
000001c0: 6bba c3bd a86c 453d d7cd 223e 3148 03be
000001d0: 5c0e e23d 1484 dd3d e74c ad3d 0d99 fc3a
000001e0: b03d 36be aa49 b43c e8be 51be 3477 fabd
000001f0: 5281 b2bd 7fdf 0c3e 5c3c 4d3e 055c 3cbe
00000200: eb12 1cbe 9e86 0d3e 72b7 4c3d 9dca f3bd
00000210: 3790 62bd 041f 183e 86b4 d23d cf44 ccbd
00000220: 5f0a a73b 906d 33be 393b ccbd 6769 03be
00000230: 9c03 a13d b3a9 1b3e a9ef 523e d679 2b3e
00000240: d818 1a3c f822 d0bd 4fbb 033d 0ba5 15be
00000250: 2889 b6bd df05 6f3d 0a85 d73c f64c 993d
00000260: ff93 093e e77d ccbd 8829 db3d a6da 1f3e
00000270: 6e27 0b3e 6229 273c bc53 15bd c4d5 383e
00000280: 718f 263e 4ce3 7a3e 401e 12be ffdf 65be
00000290: 53a8 19be 5e3f 843d 5a6b f0bc 2c80 b6bd
000002a0: ffbf 5f3e 1c05 a13d 5d60 453e 6f65 11be
000002b0: 6db8 edbd 6dd2 233e 0538 313e 3717 b23d
000002c0: 31e8 45be 9b48 11be cfbd 7bbd 2792 1d3e
000002d0: 3f7f 3c3e 97da 70bc e4a3 3bbd a8bb 193e
000002e0: 9948 05be 41ad ca3d 25f6 16be ca86 6b3d
000002f0: 2f6d 2f3c 59da 18be a0f9 3cbe 04f5 4fbe
00000300: 00f8 afbd a673 9f3d 248d 3fbe 2355 2e3e
00000310: 7f11 143e ff60 1cbd 8786 f93c d876 48bd
00000320: e7ae 203e d1ed 0a3e e80d 3bbe beae 94bd
00000330: 59ec 893d 734c 8dbb 4b03 963d 6caf 9b3d
00000340: eca8 0dbd 6123 5bbd 44dd c039 aaa9 7bbd
00000350: 470a 933b 6da2 fc3b 8594 3d3d 2481 103e
00000360: 1e10 eebd 6107 6cbe 1f79 39be e604 30bd
00000370: e856 173e 969f 1e3e bebb 7b3c 436e 343e
00000380: 03df fbbc 2a45 ae3c 5f68 cd3d 7e96 9dbd
00000390: a5e5 aebd 64c4 cdbd 4ef0 c4bd 93af 2d3d
000003a0: 9c17 653d 1fbe 74bc 135a 0c3d ab0a 14be
000003b0: d360 253d 21ad 803d c160 fb3d 586d 3a3d
000003c0: ee49 103e a8e3 01bc 5f9b d6bd 80ed 4f3d
000003d0: 799a 25bd 2811 6d3e 31d5 463d 5f95 4d3e
000003e0: f5ac 0c3e dcb2 a2bd 154e ddbb 581c 55bd
000003f0: 7dd6 e3bd ca8a 7f3d 9f49 983e 7587 bc3d
0.062142298 -0.052411728 -0.09323725 0.10452321 0.11341891 -0.114509955 0.06638119 -0.047047123
0.051449195 0.015017756 0.086869575 -0.1270758 -0.15751703 0.16475235 -0.06037221 -0.022454629
0.20945077 -0.13661204 0.18863036 0.06277645 -0.18659952 -0.1246198 -0.18131639 -0.04153256
0.11593023 -0.068541445 0.20697625 0.1703773 -0.08375141 0.07505091 0.14538735 0.06466749
-0.11280572 -0.10770379 0.12943645 -0.0041545853 -0.17270724 0.12095664 -0.084694766 0.047795873
0.1538345 -0.09259917 -0.15978068 0.10109205 -0.07749118 -0.08040765 0.003114649 -0.09030164
0.06274717 0.14322469 -0.01976857 -0.14298159 0.13411355 0.029761126 0.1270022 -0.131688
-0.113696985 0.10002611 0.042393666 0.094483405 0.09732327 0.105905995 0.026036821 -0.14167309
-0.07657587 -0.16182257 -0.02037092 -0.07529578 0.09495315 0.17002223 -0.066120714 0.040019877
-0.15469758 -0.061501965 -0.17348681 -0.09637065 0.06315624 -0.0977214 -0.11760804 0.13834287
-0.16590115 0.044769797 -0.16155991 -0.22446562 -0.18950199 0.15663193 0.073800884 0.15997793
0.24718648 -0.08386339 0.046307508 0.04905006 0.043048218 -0.13147938 -0.081629425 -0.07739204
0.030938184 0.0404023 0.1171749 -0.12888847 0.08788537 -0.20923461 0.005059322 0.16322777
0.10691204 0.14112338 0.15400146 -0.089394264 0.1390894 -0.029618446 -0.18298861 0.1245929
-0.09557041 0.048199326 0.15898834 -0.12820508 0.11037895 0.108162075 0.084619336 0.0019271687
-0.1779697 0.022007782 -0.20482981 -0.122297674 -0.08716072 0.13757132 0.20042557 -0.18394478
-0.15241592 0.13820884 0.049979635 -0.1190388 -0.055313315 0.14855582 0.10288338 -0.09974062
0.005097672 -0.17522264 -0.09972233 -0.12833177 0.078620166 0.15201454 0.20599236 0.16745695
0.009405337 -0.1016292 0.032161053 -0.1461374 -0.08912879 0.05835521 0.026308555 0.07485382
0.13435362 -0.099849515 0.10701281 0.15610752 0.1358926 0.0102027375 -0.03645681 0.18050295
0.16265656 0.2450077 -0.14269352 -0.22448729 -0.15005617 0.06457399 -0.029348064 -0.089111656
0.21850584 0.07862303 0.19275041 -0.1419885 -0.11607442 0.1599824 0.17306526 0.08695834
-0.19326855 -0.14187853 -0.061460312 0.15387784 0.18407916 -0.014700553 -0.045810595 0.15012991
-0.13015975 0.09896327 -0.14742334 0.05750159 0.010707184 -0.14927043 -0.184546 -0.2030831
-0.08592224 0.0778573 -0.18706185 0.17024665 0.14459799 -0.03817844 0.030459655 -0.048941463
0.1569172 0.13567282 -0.18267024 -0.07259892 0.06734533 -0.004312092 0.07324847 0.076018184
-0.034584925 -0.053500537 0.0003678595 -0.0614411 0.004487309 0.0077097923 0.046284217 0.14111763
-0.11624168 -0.2304969 -0.1811261 -0.04297342 0.14779246 0.15490565 0.015364585 0.17620187
-0.030745989 0.021273214 0.10029673 -0.0769472 -0.08539895 -0.10047224 -0.09616147 0.04240377
0.05593072 -0.0149379065 0.03426559 -0.14457195 0.040375542 0.06283022 0.12274314 0.045514435
0.14090702 -0.007927813 -0.104788534 0.050763607 -0.04043052 0.23151076 0.04854316 0.20076512
0.13737853 -0.07944271 -0.006753693 -0.052028984 -0.11124895 0.06238822 0.29743668 0.09205524

bias f4 [16]
00000000: d0c6 cdbd ec13 cbbd a2f2 e13c 5db9 123e
00000010: 22da f73d 2394 e9b9 f6a5 1d3e ac55 47be
00000020: c168 21bd 0e4c 583c df15 543e 96fd 47bc
00000030: 4f4b 4b3d 6a71 b63d 42a8 d03d bef5 e1bd
-0.10047686 -0.09915909 0.027581517 0.14328523 0.121021524 -0.00044551594 0.1539534 -0.19466275
-0.03940654 0.013201727 0.20711468 -0.012206456 0.049632367 0.08908351 0.10188343 -0.110332

weight f4 [16]
00000000: bde2 873f 048e 693f cfc8 6d3f 7e0b 723f
00000010: f5b3 893f 5ade 753f 6a35 803f 4ba4 703f
00000020: d643 7c3f 6502 703f 072b 7c3f 6f45 813f
00000030: 6634 7e3f a34e 6e3f 74c7 893f 801a 873f
1.061607 0.91232324 0.92884535 0.94548786 1.0758044 0.96042407 1.0016301 0.9400069
0.9854101 0.93753654 0.98503155 1.0099314 0.99298704 0.9308874 1.0763993 1.0554962

bias f4 [16]
00000000: 3b2a 443e ab61 53bd 334b d4bd b866 babd
00000010: 5dda a13e 7b87 26bd 9ce1 b13e 6867 04bc
00000020: 4c51 013e a7af e1bd af9e cc3d e728 85bd
00000030: 63c7 f93d 6dc5 033e fddf 8c3e 9fbc 31bc
0.19156735 -0.051606815 -0.103659056 -0.09101623 0.3161191 -0.040656548 0.3474244 -0.008081295
0.12628669 -0.11019831 0.09991204 -0.06501942 0.12196233 0.1286828 0.2751464 -0.010848193

running_mean f4 [16]
00000000: 8c27 aebd 270c 32bd ed2b 65be 4774 8d3e
00000010: 8f71 023e 3241 e53e cfd1 1a3e ebf7 87be
00000020: 9719 8ebd e346 1f3e 7f7d 3e3e 71df 8cbd
00000030: 6c7e bc3c a0b7 023e 2e1d fe3d b51a 3fbe
-0.08503637 -0.04346862 -0.22380038 0.27627775 0.12738632 0.44776303 0.15119098 -0.26556334
-0.069384746 0.15554385 0.1860256 -0.068785556 0.023009501 0.1276536 0.12407909 -0.18662532

running_var f4 [16]
00000000: ed4f ca3a 7d83 943a feb8 2d3c ec1d ae3b
00000010: 865a c03a 939a f33c 7406 e13a a077 533b
00000020: edbb ef3a 43d1 123c bbb0 813a 701d 973b
00000030: 028c 9f3a 1e5d bb3a 2da6 203b 0871 9e3b
0.0015435197 0.001133069 0.010603188 0.0053136256 0.0014675416 0.029736793 0.0017168061 0.0032267347
0.0018290259 0.008961025 0.0009894589 0.0046116635 0.0012172463 0.0014294719 0.002451311 0.0048352517

weight f4 [16, 16, 3, 3]
00000000: 0bf8 8cbd a341 9bbd 517a 3b3d b4f1 b9bd
00000010: 13f2 efbc 9f2d 763b 1ef3 b7bd 3603 893d
00000020: 966f 233d c976 2d3d adc1 753c f535 133d
00000030: 708b 7bbd a798 9fbd cc9f 97bc b754 37bd
00000040: 8086 23bd 8d2f ed3c 870d 873c 55ca 573d
00000050: e092 7c3d 431c a9bd cde8 a8bd ca0c 953d
00000060: 32bc 193d 181c f63a 98a8 b7bd acd7 4a3d
00000070: e510 26bd 38d9 013c 1b05 1e3d 556a bcbd
00000080: 01d5 843d 784c 57bd 7060 a1bd d768 cbbd
00000090: 3584 a5bc e9ed b0bd 0ff7 b13c d590 80be
000000a0: 10f8 38be cd74 0fbd 465c e7bc 15c2 6ebd
000000b0: e368 253e b998 693d 468b 9e3d 67d7 3dbc
000000c0: 8673 5abd ff00 5b3b 4a7e 273c 335e 27bc
000000d0: 43db 443d d8c3 30bd b2ec acbb a984 95bd
000000e0: 27cb 853d 993b 8fbb 3522 0bbd 01bc 79bd
000000f0: d51b edbc 44e3 dfbd 5600 0abd a369 5a3d
00000100: 923b 6c3c e3b1 9fbc a596 5abd 693f b9bb
00000110: e545 adbd c1e7 ba3d 86b6 a0bc c96f c03c
00000120: 102a 5e3a 93de 933d 6f1c 0e3c dae4 553d
00000130: d184 60bd 5009 4cbd 2e3e 44bd 87cc 5dbd
00000140: a0f3 19be 3882 823d 19ae a03d dd73 c2bb
00000150: aa53 5fbc abfb 333d e346 c03d cc09 b3bb
00000160: 28e0 063d 8569 7b3b 8354 20bd c5fc 593c
00000170: 3bdd e1bd 0b67 cb3c 3ade 653d b576 92bc
00000180: 684a 093d cbdc 84bc 26ad 083d 6a57 d93d
00000190: 2f61 a2bd ba1e babd e6d1 ee3c 0ad7 03bd
000001a0: fb8c 2b3d 1ac7 02bd a741 b23d 0ef5 9e3c
000001b0: 7d23 dabd 93da 72bc e600 6fbd 844b 1abd
000001c0: 5224 5f3d 1e21 49bd 18f2 1f39 3a0f aa3d
000001d0: 1299 923d 2573 0ebc 21b1 843d e2ea 9abc
000001e0: 168b 62bb 48aa 443d 17c8 8cbd 4124 b93c
000001f0: 65ec c6bd 94fa 85bd b767 cd3b 85aa 943d
00000200: 353f c2bd 4573 603d e30f 00be 0d92 f4bb
00000210: 96c5 febd 143d fc3a a054 9dbd 1e1d 0c3c
00000220: 67b8 7f3b daf9 d3bd 3c74 cf3c afd7 ccbd
00000230: aa64 8abd 9228 ee3c 769c 633c 2bb8 28bc
00000240: fa59 61bd f0b5 143d 5d2f 983d 364c 0c3b
00000250: daa1 a03d baaa d5bc a3ce d8bd e546 96bd
00000260: 4d32 033d dc30 963c 7bb3 73bd e05b 143d
00000270: d9ba 223d 69f2 6ebd 1849 583d 4321 a93d
00000280: a9a0 cabd b17c 9e3a 333a 353c 86fd b4bd
00000290: 5b2a 8abd 3b81 383d ede5 873a fc69 833c
000002a0: 89e2 bcbd 69ff e33c 629c 87bc 608b 133d
000002b0: fcb5 83bb ef9b ffbc 4d22 dc3d 3884 263c
000002c0: bba6 933d 55f3 393d d378 463d 7a86 833d
000002d0: 56e7 4c3d e225 2abb 65f0 593c 60d2 4bbd
000002e0: aed0 5ebb b25b c13d aadb 38bd 4cde 703d
000002f0: 018e 01bd 14fe ec3d e6d7 d93d 5a42 e63d
00000300: 70b5 85bc 5dc6 a33d b3ab 02bd c6fe 9e3d
00000310: 9556 be3d ad24 0e3c 2fc9 a03c 1db0 a73d
00000320: 4e1f db3b d677 8a3c 4c47 e1bc cd3c 14bc
00000330: 3b7f 13bd 50b6 0937 6d66 b8bd b0ce 72bd
00000340: 6f2a 75bd 21e2 c5bd 9e2e 1ebd 351e 8d3d
00000350: 5b5b 8dbd 0130 e63c 6693 c7bc 2dd3 0f3d
00000360: 5f7e 60bc 523a e83d 6bc3 9d3d d356 c53d
00000370: 68c5 393c 7c29 bd3d ee46 483d feb0 59bd
00000380: 7f5f babd 2589 453d 23ff f53c d255 98bd
00000390: a211 c33d 225d 803d 9aed 51bb 2284 38bd
000003a0: 0b2b a83d fd57 56bc a2f2 ed3b 1ed2 9cbd
000003b0: 20e1 f3bb 0411 ffbb 3198 21bc 7267 5ebd
000003c0: aaf3 953d 995b 05bd cdde a03d 9872 11bd
000003d0: cd69 ddbc 9821 c8bd 1a41 73bd 658e e1ba
000003e0: d4fc 1dbd 28b6 0dbe 01cf e13c 73a5 133c
000003f0: a7ed 913c 5b3f da3c 1866 b1bd 3447 813a
-0.06883248 -0.075808786 0.045770947 -0.09079304 -0.029290235 0.0037563813 -0.08981918 0.066900656
0.03990134 0.04234961 0.014999789 0.03594013 -0.061412275 -0.07792788 -0.018508814 -0.044758525
-0.03992319 0.028953338 0.016485943 0.052683193 0.06166351 -0.082573436 -0.08247528 0.0727783
0.037532993 0.0018776683 -0.089677036 0.049522087 -0.040543456 0.007925324 0.038579088 -0.09199969
0.0648594 -0.05256316 -0.07879722 -0.09932106 -0.020204643 -0.08639128 0.021724252 -0.25110498
-0.18063378 -0.0350235 -0.028242242 -0.05829056 0.16153292 0.057030413 0.07741408 -0.011587
-0.053332828 0.0033417342 0.010222981 -0.01021533 0.048060667 -0.04315552 -0.0052772397 -0.073006935
0.06532889 -0.0043711183 -0.03396817 -0.06097031 -0.028943935 -0.10932019 -0.033691727 0.0533234
0.0144185 -0.019494003 -0.053366322 -0.005653311 -0.08460597 0.09126235 -0.019618284 0.023490803
0.0008474896 0.07220187 0.008673771 0.052220203 -0.054814164 -0.04981357 -0.04791086 -0.05415013
-0.15034342 0.063724935 0.078457065 -0.005934222 -0.013630787 0.04394118 0.093885206 -0.0054638144
0.032928616 0.0038362455 -0.039143097 0.013304894 -0.110285245 0.024829408 0.056120135 -0.01787887
0.033518225 -0.016218564 0.033368252 0.10612376 -0.079286925 -0.09087892 0.029152822 -0.0321875
0.041882496 -0.03192816 0.087039284 0.01940396 -0.106513 -0.01482262 -0.058350466 -0.037669674
0.054477997 -0.04910385 0.00015253609 0.083036855 0.07158102 -0.008694445 0.06479097 -0.018910829
-0.0034567765 0.048013955 -0.068741016 0.022600295 -0.097130574 -0.065419346 0.0062684673 0.072590865
-0.09484712 0.05479743 -0.1250606 -0.0074636997 -0.1244003 0.0019244277 -0.076821566 0.008551864
0.0039019824 -0.1035039 0.02532398 -0.10002076 -0.067574814 0.02907208 0.013892284 -0.010297815
-0.05501745 0.03630632 0.07430909 0.002140773 0.07843371 -0.026082385 -0.10586288 -0.07337741
0.032030392 0.018333845 -0.059497338 0.03622043 0.039728973 -0.05833665 0.052804083 0.08258297
-0.09893925 0.0012091604 0.011061239 -0.08837418 -0.0674636 0.04504512 0.0010368206 0.016041748
-0.09222896 0.02783175 -0.016554061 0.03602159 -0.004019497 -0.031202285 0.1074873 0.010163359
0.07209536 0.045398075 0.04845507 0.06422134 0.050025307 -0.0025962521 0.013301943 -0.049761176
-0.0033998895 0.094413176 -0.045131363 0.05880575 -0.031629566 0.11571899 0.106368825 0.11243124
-0.016321868 0.07996819 -0.031902026 0.07763438 0.09293858 0.008675736 0.019627182 0.08187888
0.0066870814 0.016902845 -0.027499817 -0.009047699 -0.03601001 8.208284e-06 -0.09003911 -0.059279144
-0.05985492 -0.09662271 -0.038618676 0.06890527 -0.0690219 0.028099062 -0.024362277 0.035113502
-0.013702004 0.11339249 0.07703289 0.09635701 0.011338569 0.09236428 0.04889577 -0.05314731
-0.09100246 0.048226494 0.030028885 -0.07438244 0.095248476 0.06267764 -0.003203249 -0.045047887
0.08211335 -0.0130825015 0.00726159 -0.07657264 -0.0074426085 -0.007784011 -0.009862945 -0.054297872
0.07321866 -0.032558057 0.07854996 -0.035509676 -0.027027989 -0.097720325 -0.059388258 -0.0017208575
-0.038571194 -0.13839018 0.027564527 0.009011614 0.017813517 0.026641538 -0.08662051 0.0009863139

bias f4 [16]
00000000: e14b 98bd bc76 043c 35a5 babb d0b6 8c3d
00000010: 2441 9d3c 0408 d93d a18d 113d 4430 49bd
00000020: 5e59 94bd 18e5 f43b a5c2 53bb 9547 83bc
00000030: 8bbf e8bc 423d b13c 4f2b a83d 518d 063b
-0.07436348 0.008084949 -0.0056959637 0.06870806 0.0191961 0.10597232 0.03553546 -0.049118295
-0.07243608 0.007473599 -0.0032312062 -0.016025344 -0.028411647 0.021635655 0.082113855 0.0020531008

weight f4 [16]
00000000: ffb2 8c3f 7bd7 6e3f 5526 883f e708 663f
00000010: ecde 7c3f 0edd 7a3f df0d 843f 1695 6e3f
00000020: 8962 703f 2d9f 633f 72d5 713f f8a1 713f
00000030: d262 6a3f 8ab2 683f a2f7 a03f 6295 8a3f
1.0992125 0.9329755 1.0636698 0.89857334 0.9877765 0.9799355 1.0316733 0.9319624
0.9390035 0.8891476 0.94466317 0.9438777 0.9155704 0.9089743 1.2575572 1.0826838

bias f4 [16]
00000000: d591 453e 5b6d a7bd 698c 853e 14b0 a5bd
00000010: ad4f 9f3d eac4 51bd 1681 113e b4b5 e5bd
00000020: e52c 0bbc 8817 8ebc 30d8 38bd 321d 8bbd
00000030: 6439 e5bd 9555 83b9 6cd8 5b3e 6b42 093e
0.19293912 -0.08175155 0.26083687 -0.08090225 0.07778869 -0.051213183 0.14209399 -0.11216298
-0.00849459 -0.017345205 -0.045128047 -0.06792678 -0.11192587 -0.0002505003 0.21469277 0.13404243

running_mean f4 [16]
00000000: e226 49bf 9188 1a3e cd6d 80be 047a c63e
00000010: eff5 c5be f4a7 adbe bfec b1bd 65ff 923f
00000020: 24e2 103c d3ac ecbe 0ad6 ffbe fdf5 853e
00000030: a693 d73e 37a4 d6be 3d17 1cbe a66c 74be
-0.78574955 0.15091158 -0.2508377 0.38764966 -0.38664195 -0.339172 -0.08687734 1.148419
0.008842979 -0.46225604 -0.49967986 0.26164237 0.42104834 -0.4192216 -0.1524324 -0.23869571

running_var f4 [16]
00000000: 4f69 453f cc96 383f b1db 063f 16cd b83e
00000010: bd1f d43e 6746 be3e 28bd 193f f848 d43f
00000020: 99db 5f3f dc79 2c3f a3cd 723f 3e7f b33e
00000030: 3302 da3e 109b 4c3f a3c1 153f bf19 c53e
0.77113813 0.721051 0.5267897 0.36093968 0.41430464 0.37163088 0.60054255 1.6584768
0.87444454 0.6737344 0.94845027 0.35058016 0.42579803 0.79924107 0.5849859 0.38496205

weight f4 [32, 16, 3, 3]
00000000: c9e2 013e 2898 323e c81d c33c 76dd e83d
00000010: 77d6 183e 2405 a83c 826e 0abe 219d 753c
00000020: cb2d 843c b298 3a3d 2d2e ae3d 7cda 773c
00000030: 9dc5 eebc a77f 74bc 5408 32bd 8e91 96bd
00000040: d2a7 7d3d ea70 a4bd ea12 b13c a9c4 fdbd
00000050: 8e0d 8bbb 678c af3d 9dcb 043d d670 3e3d
00000060: 1bbc 49bd 21d8 593d d53d a63d ab94 003e
00000070: 3128 4cbd 4286 cbbc 5203 a1bc 8fe8 cd3d
00000080: 44ca 2a3d 93cc 1cbc 28c6 a0b9 8730 85bd
00000090: 4546 8fbc 47b6 d93d dd8d f53d 7493 1a3d
000000a0: 3a46 c73d d107 2cbd 95e4 373d 1b97 8a3b
000000b0: 5ecb 60bd e764 88bb 92a2 3abd beb8 5cbc
000000c0: 0d50 e23c cb2e b2bd 90b0 b0bd 73e6 8a3d
000000d0: c68b 643d 85a4 90bc 56fa 39bd 096f 8f3c
000000e0: a532 a6bc 488b 8fbc 2b2c de3d 778f 92bc
000000f0: 1c64 b13d b02c 0abc 9329 1f3b a70e 7d3d
00000100: afdc 4ebc 348f 2dbd 1e45 ea3c 06bf 4abd
00000110: 9051 4b3c 716e 62bd 8a0e 75bd 7a56 e0bc
00000120: f256 efbd 6d94 bebd 827d bf3c 2418 d6bd
00000130: 517c 2f3d 9dad 22bd b5f6 52bc 7f2f 1abd
00000140: 2bd3 02be d1ba e7bc 187f 89bc 2bfd 123c
00000150: c5ce b5bd d13f 173d 0c84 d1bb 2e9f 963c
00000160: 16c6 a2bd 07d1 86bd 227c 053e f371 d93c
00000170: 959d 503d dbb0 dd3d 841d 023d c7a4 0c3d
00000180: eb17 ea3b 3910 3fbc a4ba 8d3d 8f07 333d
00000190: 4211 ba3d 9e63 2d3d c1da d63d 27ab 563d
000001a0: 8ab7 83bb b3fb 3dbd 7f3f ccbd ca0c aebc
000001b0: bc37 a3bd 9d74 5bbd 9191 97bd 1b77 5abd
000001c0: 95e2 18bd 3aad 8dbd 9c96 8d3c f492 053c
000001d0: a5a4 9c3d fc32 7bbd 4fe0 0dbe 7e78 a2bd
000001e0: daf9 90bd dbe2 e63c 715c 9538 f1db 463d
000001f0: 1c1b cbbc a3c3 893c f953 c23c c403 ed3c
00000200: c419 67bd 9bdf d63c 9bec 82bd 6129 61bd
00000210: 1433 183d 7154 47bd 18d8 913d 8c0a 093d
00000220: 1562 d0bc cf9c c8bc e1bb a2bc 13f7 a83c
00000230: 6514 793d a8e5 9bbd 35db 90bd 2163 fe3c
00000240: 0cad 323d cef5 cbbd 354d 8c3d cd8d 423b
00000250: 69c6 803d d11f a63d 018e 263d 6043 193e
00000260: f219 0b3e b46e 02be 687c 8f3c 4579 1bbd
00000270: 9bff 0cbd 632a 65bc 8ae2 3bbd 5eb5 a3bd
00000280: 745e 02be 61ff 433c 82ae ecbc 5313 ab3c
00000290: 37e8 febb 4e6b efbb 6b74 8e3d cf48 943d
000002a0: 03f7 413d 4295 993d 4176 9f3d f567 c73c
000002b0: 8fa4 183d d10d e33c ec24 113d aea3 5dbd
000002c0: f049 c83b d716 e4bc 2cd0 2e3d fac2 bbbd
000002d0: f702 1f3e d91f 823d de9a a539 0acb b8bc
000002e0: fff0 893d 55db 653d 79b9 2c3d 286d 433d
000002f0: 0e27 0f3d b54e df3d dae3 ac3c d3f2 883d
00000300: c7f4 953c b4c6 73bd 4db1 87bd 1571 95bb
00000310: 15a1 bcbd a9ff 82bd 79c5 623c 28bc b63c
00000320: 90db ea3d cc64 a8bd 592f 6ebd 6ede 183d
00000330: 193c b2bd 3099 e83c 5f6a 99bd fac0 03b9
00000340: 5e21 d13d 3297 60bd a1d1 563d a0db 113d
00000350: 3b34 9e3d 3c84 50bb ffd9 6bbd 2f20 5dbd
00000360: d4eb bd3c 6280 053e a487 fe3c e183 a0bc
00000370: f9c2 d03d c790 6c3d c61e 7d3d bc11 69bd
00000380: 6b21 cabc f791 efbc db70 ff3d 05f6 bc3c
00000390: 7296 893d e65b 5abb f359 543d 9996 3bbc
000003a0: a065 0ebd 2cfe c9bd adcf a53c 3b51 d53d
000003b0: 4742 d43d c3bb dc3d b104 dc3b d42e de3d
000003c0: 29d9 ebbc 4660 103d 958a 813c 41c6 9abd
000003d0: f000 2d3d 310b 533d a265 8fbd 2870 973d
000003e0: b69b 103d 7326 933c 90d9 603d 517a a1bc
000003f0: 0f7a 6cbd fe43 18bd ad79 0cbd 3d8f 853d
0.12684168 0.17440856 0.023817912 0.11370365 0.14925562 0.020510264 -0.13518718 0.014991076
0.016135117 0.045555778 0.08504901 0.015127774 -0.029146964 -0.014923013 -0.043464974 -0.07351981
0.061927624 -0.08029349 0.021615464 -0.123910256 -0.004243559 0.085717015 0.032420743 0.046494327
-0.049251657 0.053184632 0.08117262 0.12556712 -0.049843017 -0.024844293 -0.019654904 0.10054123
0.0416968 -0.009570259 -0.00030665216 -0.065033965 -0.017489562 0.1063047 0.11989949 0.03773828
0.097301915 -0.04199964 0.044895727 0.004229439 -0.054881446 -0.004162419 -0.045565195 -0.01347178
0.027626062 -0.08700331 -0.086274266 0.06782236 0.05579736 -0.017656574 -0.045404755 0.017509
-0.020287821 -0.01752247 0.10848268 -0.017890675 0.086616725 -0.008433506 0.0024286255 0.06178155
-0.012625857 -0.042372897 0.02859741 -0.04949858 0.012409583 -0.055281106 -0.05982832 -0.027384985
-0.116865054 -0.09305654 0.023375276 -0.10453823 0.042843167 -0.03971635 -0.012876202 -0.037642952
-0.12775867 -0.028287323 -0.016784236 0.008971493 -0.08877329 0.036926094 -0.006393915 0.01838645
-0.07947938 -0.065828376 0.13035634 0.026543593 0.050931532 0.10824748 0.03176643 0.03433683
0.0071439645 -0.011661583 0.069203645 0.04370838 0.09085323 0.04233133 0.10490943 0.052409317
-0.0040196823 -0.046382617 -0.099730484 -0.021246333 -0.07969615 -0.053578008 -0.074008115 -0.053336244
-0.03732546 -0.06917806 0.01728373 0.008152712 0.07648591 -0.06132792 -0.13855098 -0.07933138
-0.070789054 0.028184345 7.122092e-05 0.048549596 -0.0247932 0.01681692 0.023721682 0.02893246
-0.056421056 0.02622967 -0.06392785 -0.054971103 0.037158087 -0.048664514 0.07121295 0.033457324
-0.025437394 -0.024488835 -0.019864978 0.020625627 0.060810465 -0.07612163 -0.070730604 0.031053128
0.04362206 -0.09958993 0.068506636 0.002968657 0.06287844 0.08111537 0.04066277 0.14967108
0.13584116 -0.12737542 0.017515376 -0.03795745 -0.034423452 -0.013987157 -0.04587034 -0.079935774
-0.12731344 0.011962743 -0.028891806 0.020883238 -0.007779147 -0.007306493 0.06955799 0.0724045
0.04735471 0.07499172 0.07786227 0.024341563 0.03726631 0.02771655 0.035435602 -0.054111175
0.0061123297 -0.027842922 0.042678997 -0.09168048 0.15528475 0.06353731 0.00031586637 -0.022557754
0.067354195 0.056117374 0.042169068 0.04771152 0.034949355 0.10903684 0.021104742 0.0668694
0.018305195 -0.05951567 -0.06625614 -0.0045605996 -0.092104115 -0.063964196 0.013841026 0.022306517
0.114676595 -0.082223505 -0.058150623 0.0373215 -0.08702869 0.028393358 -0.07490992 -0.00012565023
0.102114424 -0.05483169 0.05244601 0.03560984 0.07724806 -0.00318171 -0.057580944 -0.05398577
0.02318374 0.13037255 0.031070538 -0.019594135 0.10193438 0.057755258 0.061796926 -0.05690168
-0.024674138 -0.029244406 0.12472697 0.02306653 0.06718148 -0.0033318936 0.051843595 -0.0114494795
-0.034764886 -0.098629326 0.02024063 0.10415884 0.10364204 0.10778 0.0067144264 0.108487755
-0.028790073 0.035248064 0.015813151 -0.07557345 0.042237222 0.051524345 -0.07001807 0.07394439
0.035304748 0.01796267 0.054894984 -0.019711645 -0.05773359 -0.037174217 -0.034295727 0.06521461

bias f4 [32]
00000000: 8894 1c3d 22fe 193d 1572 95bd bb30 05bd
00000010: 377a 4c3d c50c 973d 75ad 5fbd 248b 843d
00000020: 9731 1ebd c0e8 213d c53b ad3d a2b8 c53c
00000030: 010c 033d cdaa 83bd 9533 be3d 5361 5b3d
00000040: 5cb9 5a3d f5b2 e9bb 67d7 bc3a 2330 06bc
00000050: a397 de3c 6449 e9bc 427c 2b3c 63f1 2dbd
00000060: 5b83 8c3d 5ab4 5e3c eba9 ac3c 22a6 47bc
00000070: 45a5 1dbd 9511 923d 5bef 523d e5bd 12bd
0.038227588 0.037595876 -0.0729715 -0.032517176 0.04992124 0.073754825 -0.05460878 0.064718515
-0.03862151 0.03952861 0.08458666 0.024135891 0.03199387 -0.06429062 0.09287182 0.053559612
0.05339943 -0.007131929 0.0014407457 -0.008190188 0.027171915 -0.028477378 0.010466637 -0.042466532
0.068609916 0.013592804 0.021077117 -0.012185605 -0.03848769 0.0713226 0.0514978 -0.03582563

weight f4 [32]
00000000: 039f 783f a3eb 723f 3152 8c3f 36fc 693f
00000010: 8e51 7f3f 19b9 893f ce2a 5f3f 0647 6a3f
00000020: 7cbe 6b3f cd53 a23f 8c1f 8b3f b32a 673f
00000030: 97c9 693f 9030 803f bfc2 833f cf86 9a3f
00000040: 0618 793f 3176 963f c0d0 5e3f 0605 6d3f
00000050: cc50 a33f 888e 5b3f 8e81 6b3f 902e 9c3f
00000060: e638 703f 9144 883f 3b95 683f 2912 703f
00000070: e683 713f 0a76 6a3f 64ff 8b3f 7bf9 9b3f
0.9711763 0.94890803 1.0962583 0.9140047 0.9973382 1.0759612 0.8717469 0.91514623
0.9208753 1.2681824 1.0869002 0.9029953 0.91323227 1.001482 1.0293807 1.207239
0.9730228 1.1754819 0.8703728 0.9258579 1.2759032 0.8576436 0.9199456 1.220171
0.9383682 1.0645925 0.9085271 0.9377771 0.94341886 0.91586363 1.0937314 1.218551

bias f4 [32]
00000000: 90d7 bbbd 1449 a6bd 82b4 45bd 8079 48bd
00000010: 987e 0cbd 20ef 003c 8247 e9bd 52dd 68bd
00000020: 3469 90bd df5b cd3d 1a32 153d 071a c2bd
00000030: 13ac 80bd 46db bbbc be24 5cbc e9c4 2c3d
00000040: 4293 8cbd 9d6a ea3d cfdb c8bd 6ca6 b8bd
00000050: 917f 113d 777e 08be 97bc 5abd 62b7 a43d
00000060: 81af ffbd 0593 b1b9 b1e5 24be 2e56 afbd
00000070: a38b 6dbd e436 86bd 55e1 e43c 555f 8e3c
-0.09171975 -0.08119407 -0.04826785 -0.048943996 -0.034300417 0.007869512 -0.11390592 -0.056851692
-0.07051316 0.10027289 0.036424734 -0.094776206 -0.062828206 -0.022931706 -0.013436494 0.042179976
-0.06864025 0.11446116 -0.0980755 -0.090161175 0.035522047 -0.13329493 -0.05340251 0.0804279
-0.124846466 -0.0003386961 -0.16103245 -0.08561359 -0.057994496 -0.06553438 0.027939478 0.017379442

running_mean f4 [32]
00000000: 79e6 8e3e 3d66 b13f 30ae 01bf edf6 763e
00000010: 37d9 4fbf 056e 37be d9fa 7a3f 0e26 1ebf
00000020: 83ed ae3f fa56 2abf d8f3 c4be 95cc 94be
00000030: fc4f f93e 0132 edbe b825 9fbe fb7a 5ebe
00000040: f528 973f 1b3e 54bf 84e2 7a3f 7c7a 85be
00000050: 19ac 29bf b431 643f b03f cfbd 7e6a ecbe
00000060: 749f 4a3e 782b 35bf 9a5e 173f c0cb ff3e
00000070: f7a4 9b3e a699 e0be 7f54 f2be 226f 2fbf
0.27910212 1.3859326 -0.50656414 0.24117632 -0.8119082 -0.17913063 0.98039013 -0.61776817
1.3666233 -0.66538966 -0.38467288 -0.29062334 0.48693836 -0.46327212 -0.31083465 -0.21726601
1.1809374 -0.82907265 0.98001885 -0.2607001 -0.66278225 0.8913834 -0.10119569 -0.46174997
0.19787389 -0.70769453 0.59128726 0.49960136 0.30399296 -0.43867224 -0.4733009 -0.6852895

running_var f4 [32]
00000000: 18e4 8c3f 6308 1d3f 535d cd3e 41b7 5c3f
00000010: f99c 873f adb2 b13e 1d6d 833f 1fb6 383f
00000020: ba63 723f 02e0 f73e 57d0 cc3e 3bf6 fa3e
00000030: 3fe9 f93e 0aa5 7a3f 6321 c83e 2db1 093f
00000040: ccfd 7d3f 4fa3 103f 0f7e 433f 2731 2b3f
00000050: 648e 0e3f dc2d 033f 59c1 fd3e 7c1a ae3e
00000060: 0e7a 703f 295f f83e cdd0 3d3f dedc 023f
00000070: 38d4 cd3e d2ba 783f e44a e13e 4c8d 253f
1.1007109 0.6134092 0.40110263 0.86217123 1.0594779 0.3470663 1.0267674 0.72152895
0.9468342 0.48413092 0.400027 0.49015984 0.48810765 0.9790808 0.39087972 0.53785974
0.9921539 0.5649919 0.76364225 0.66871876 0.5568602 0.5124185 0.49561575 0.3400458
0.9393624 0.485101 0.7414673 0.51118267 0.40200973 0.97160065 0.4400245 0.64668727

weight f4 [32, 32, 3, 3]
00000000: 322a 8fbc 2442 fc3c 9b69 903d cb35 8a3d
00000010: d3cf f03b 108f e137 c31c 77bb bbd6 0f3d
00000020: e867 063d 4b66 99bd a20f 68bc 7991 47bd
00000030: 8fb5 52bd 3bec fcbc 3d87 29bd dabf f7bb
00000040: 86e6 34bc e779 373d 7a11 41bd 1f53 47bd
00000050: 88fb 14bd d7f1 3cbd 41ef 1c3d eb0a 163d
00000060: b7e8 c93d b091 b03c e1e8 55bc ce3e 5cbd
00000070: abec 55bd 7480 bf3c 7ba7 1c3d a15f 693c
00000080: 55fc 2cbd 83a5 9b3c 305b 883d 753e 4a3d
00000090: 193d beb8 955a e7bc bcb0 043d e024 823d
000000a0: bbf3 973c 86ca bd3b 90c0 403c 0928 02bc
000000b0: a237 55bc ec21 8ebc 3066 82bd ddc5 f33b
000000c0: a7e8 cb3b 122f c5bd ba48 acbc 654b 063e
000000d0: dab7 b63c 515e ae3d b210 54bc 3e36 1fbd
000000e0: 23cf 52bd 2a0b c0bc 0712 e53c d82f 6bbd
000000f0: a5e7 7bbd a6d8 97ba be57 fa37 41f7 03bd
00000100: 24b0 a1bd 3bd4 57bd 670e 4cbd 5f5c 2dbd
00000110: 6fbc f13c 9682 9a3d 8cf6 89bd e447 72bd
00000120: 1632 0abd 6fed a13c 7a11 063b 01e8 d5bc
00000130: 164f 48ba fccc 13bb f1c1 d03c 3c66 553d
00000140: 5061 503d 3f9d cfbd 4dfd e6bd 7fe6 cd3d
00000150: 173d 32bd 5712 81bd 0327 dcbc 311c b03d
00000160: d83a 3b3d f970 58bd cdf5 dcbc 31c0 073c
00000170: 135d 70bb 05ad 1dbd a84a 1e3d 0a04 79ba
00000180: 4a46 b3bc a8ae 4f3a 3fc8 c7bd d07d d2bd
00000190: 3674 b5b9 5a3c 8aba c9de fcbd 5a59 483a
000001a0: 6f69 86bd b35b a03c dc54 6e3d 1b76 263d
000001b0: 4ac3 adbd 64ed 4bbc 5873 423d 47da 4a3d
000001c0: 8dd1 83bc 436c 32bd d0cd debc 39ba 0abc
000001d0: 7e40 8dbc 162e 283d 74f5 1a3d 8454 06bc
000001e0: 2598 5b3d 8b27 c2bd 949c 16bd 2a3b 513b
000001f0: 31f4 35bd 7980 3c3c ba87 06bd 8087 073d
00000200: ef08 10bc 4c8c c33c d5a2 abbd 006b 93bd
00000210: 5536 443d a47a f9bc 43a3 1ebd 646d 2ebc
00000220: 0d41 d43d b4a6 ce3d 6931 b23b a938 11bd
00000230: 5da0 44bd 7dda 4ebd 3319 0dbe 0a50 813c
00000240: 482f 9dbc e836 a63b baf3 31bd df5c cdbc
00000250: 3d13 73bc 7bb4 0dbb 5b6c 8b3d 0d69 0e3d
00000260: bf22 ff3c e24c c2bd b841 f0bd 67de 833c
00000270: d7d0 c93b 7a79 0ebe 6240 65bd f105 a73d
00000280: 6f3a f73c d672 563d 3b07 f6ba 36d8 afbd
00000290: d541 6fbd 7b94 75bd 9b96 51bd ac2d 00bd
000002a0: b9c3 52bc 19ec c63b 3f78 5f3d 203e 1a3d
000002b0: cf47 223c 3620 513d d3e6 e23c 51a9 99bc
000002c0: 90f7 11bd 1ca6 89bd 9424 9c3c e1a4 8abd
000002d0: fe7c c03d a35f 923c 2e48 e5bd 5585 113d
000002e0: cf1b fb3c 498c a2bc 4eea 9ebd 67b2 e23c
000002f0: 2b21 b83b 7e46 a23c 2855 6bbd 580b 2f3d
00000300: 306a 963b 7b54 91ba 99b2 773d 5b4d 69bd
00000310: 2e65 153d cf4b 1f3d f44b 3ebb d419 1bbd
00000320: 8bef 4a3d e541 46bd 91a4 7e3d 6bb9 43bd
00000330: 854e 643d 3fb4 5f3d ebfd a53c a39e c6bd
00000340: 7908 0a3d 784f 44bc ba5c 08bd c3b2 563d
00000350: bc65 fbbc f6cd ef3d b60f ab3b ab1f 89bd
00000360: 7b51 793d d78b dd3c b03b 113d 2953 8b3d
00000370: f14e f93c 9945 e4bc a4e6 e13c 0342 293d
00000380: 2f91 42bd 353a 85bc 47af ecbc dd22 c53d
00000390: 7fa4 6fbd a042 7d3d 2e1d a03b 2bd2 06bc
000003a0: cb14 49bc c7aa efbd 0540 51bd 598f 503d
000003b0: c519 723c 748a bcbd f0a0 45bd efe0 1dbd
000003c0: 0aed 77bd 0fdb e23c efed 083d 4057 d3bc
000003d0: ad2b 7b3d 4899 ecbc 63d7 b2ba 27b8 823d
000003e0: af15 c1ba ba3f 33bb 3fb9 dbbc 86a2 863c
000003f0: 22da 843d 6f42 78bd 6e52 9abd 0610 30bc
-0.017476175 0.030793257 0.07051393 0.067485414 0.0073489933 2.6888709e-05 -0.0037706352 0.035116892
0.032813936 -0.07490214 -0.014163883 -0.048722718 -0.05144268 -0.030874362 -0.04138874 -0.0075607123
-0.011041289 0.04479399 -0.047135808 -0.048663255 -0.03637269 -0.046129074 0.038314108 0.036631506
0.0985884 0.021553844 -0.013056011 -0.053770833 -0.052227657 0.02337668 0.03824566 0.014243991
-0.04223283 0.01899982 0.06658018 0.04937597 -9.071286e-05 -0.028241435 0.03239511 0.063546896
0.018548837 0.005791965 0.0117646605 -0.007944115 -0.013013752 -0.01735016 -0.06367147 0.0074393586
0.0062228027 -0.096281186 -0.021030772 0.13114698 0.022304464 0.08514083 -0.012943434 -0.03887009
-0.051467072 -0.023442823 0.027962698 -0.057418674 -0.06150021 -0.0011584952 2.984318e-05 -0.03221822
-0.07894924 -0.052692633 -0.049818423 -0.04232442 0.029508797 0.075444385 -0.06736478 -0.05915059
-0.033739172 0.019766537 0.0020457194 -0.026111605 -0.0007641179 -0.00225526 0.025483103 0.05209945
0.050874054 -0.10137414 -0.11278782 0.10053729 -0.04351529 -0.06302326 -0.026874071 0.08599127
0.045710415 -0.052842114 -0.026972676 0.008285568 -0.003667657 -0.038495082 0.038645416 -0.0009499198
-0.021884102 0.0007922449 -0.09754991 -0.10277903 -0.00034609594 -0.0010546551 -0.123471804 0.0007642709
-0.065630786 0.019574976 0.058186397 0.040639978 -0.08484514 -0.012446735 0.04747328 0.04952457
-0.016091133 -0.043560278 -0.027197748 -0.0084672505 -0.017242666 0.041059576 0.03783174 -0.008198861
0.053611893 -0.094801985 -0.03677042 0.0031926134 -0.044422332 0.01150524 -0.032844283 0.033088207
-0.008791192 0.02387061 -0.08380667 -0.07198143 0.047903378 -0.030453987 -0.038729917 -0.010646198
0.1036397 0.1009039 0.005438019 -0.035454426 -0.048004497 -0.050501335 -0.13779144 0.015785236
-0.019187585 0.0050724633 -0.043445326 -0.025068698 -0.01483613 -0.0021622467 0.068077765 0.034768153
0.031144498 -0.094873205 -0.11731285 0.01609726 0.006158929 -0.13913527 -0.055969603 0.0815543
0.03017923 0.05235561 -0.0018770465 -0.08586161 -0.05841239 -0.059956055 -0.05116902 -0.031293556
-0.012864047 0.0060706255 0.054558035 0.037656903 0.009904816 0.05105611 0.027697956 -0.018757494
-0.035636485 -0.06721136 0.01906041 -0.067697294 0.0939884 0.017867869 -0.11195408 0.035527546
0.030652909 -0.019842284 -0.07759534 0.02767296 0.0056191883 0.019809004 -0.05745426 0.042735428
0.0045902953 -0.0011087799 0.06047306 -0.056958538 0.036473446 0.038890656 -0.002903697 -0.03786643
0.049544852 -0.048402686 0.06216866 -0.04778425 0.055738945 0.054615255 0.02026268 -0.09698226
0.033699486 -0.011981837 -0.033291556 0.052416574 -0.03068816 0.11709206 0.0052203787 -0.06695493
0.06086872 0.02704422 0.035457313 0.06802971 0.03043315 -0.027865218 0.027575798 0.04132272
-0.04750174 -0.016263107 -0.028892173 0.0962579 -0.058506485 0.061831117 0.004886291 -0.008228819
-0.012273024 -0.11702495 -0.051086444 0.050917957 0.014776652 -0.09206095 -0.048249185 -0.03854459
-0.060528792 0.027692346 0.033430036 -0.02579844 0.06132095 -0.028881684 -0.0013644513 0.063827805
-0.0014731194 -0.0027351216 -0.02682173 0.01643492 0.06486918 -0.06061023 -0.075352535 -0.010746008

bias f4 [32]
00000000: 7fec 523c c5c3 5cbc 8cec 3e3d edf8 7ebd
00000010: de3c 26bc 3094 313d 6bc5 f83c d97c 81bd
00000020: c261 10bc 1a4b 60bd ab41 213d 8c04 b7bc
00000030: f343 51bc 1aa9 17bd 0db6 943c 9676 993c
00000040: b9f4 0c3d 8090 853c 7fb0 b4bc 3492 5bbd
00000050: ee30 ef3b 5783 4dbd c884 5f3d 2276 3abc
00000060: 45cb 033c bae5 793c c0bf 00bd 18e4 c0bc
00000070: 0259 153d a5dd 283c a93d cdbc 41a7 acbc
0.012873768 -0.0134744095 0.046612307 -0.062249113 -0.010146348 0.043354213 0.030367574 -0.06322641
-0.00881237 -0.054759122 0.039369266 -0.022341035 -0.012772548 -0.037026502 0.018153215 0.018733304
0.034413073 0.016304255 -0.022056816 -0.053606227 0.007299534 -0.050174084 0.05456999 -0.011380704
0.008044069 0.015252525 -0.031432867 -0.023546264 0.036461838 0.01030675 -0.025053816 -0.021075847

weight f4 [32]
00000000: 4512 833f 6d74 623f bcbf 803f a82f 813f
00000010: 86f1 813f fed8 803f 35ef 7d3f ab7a 873f
00000020: 7a35 863f 393e 773f 2ccc 823f d0af 783f
00000030: 8422 7e3f 9687 803f beb8 663f 8e76 783f
00000040: edd8 773f bb95 643f d13e 7a3f f9db 7e3f
00000050: a898 863f 01b8 843f dc4e 813f 2011 783f
00000060: 9d26 6e3f 068d 803f 6acb 843f 584a 7f3f
00000070: 70d1 7a3f 8fc0 663f 0291 7e3f f3c8 833f
1.023995 0.884589 1.0058513 1.0092669 1.0151832 1.0066221 0.99193126 1.058431
1.048507 0.9657932 1.0218558 0.9714327 0.99271417 1.0041378 0.90125644 0.970559
0.9681538 0.8929097 0.977521 0.995544 1.0515337 1.0368654 1.0102191 0.9690113
0.9302767 1.0043037 1.0374577 0.99722815 0.97975826 0.9013757 0.99440014 1.02957

bias f4 [32]
00000000: 2212 25bd cf41 27be 61e0 e3bc 7317 803b
00000010: 762c cfbd 5445 a1ba 07fd 6bbd e33d 86bd
00000020: 9528 d23b 37d3 cdbc 9718 6dbd ddd9 b0bd
00000030: dc6d 563c 21b6 123c 49ee e7bd 888d bcbd
00000040: 7193 16bd 02a4 a3bd 543c 74bd 12c2 48bd
00000050: b204 1cbd 8df6 49bc 82f4 26bd d2d1 eebd
00000060: ea47 0dbe a238 67bc c480 a63c 3d38 16be
00000070: ee1a 7ebd 16f1 f0bd bc10 44bd 6ec7 dbbc
-0.040300496 -0.16333698 -0.027816953 0.0039090454 -0.10115902 -0.0012303987 -0.057614353 -0.06554773
0.006413529 -0.02512513 -0.05788478 -0.08635304 0.013087716 0.008954556 -0.11324746 -0.092066824
-0.036761705 -0.079902664 -0.059627846 -0.049013205 -0.038090415 -0.012326849 -0.040760525 -0.11661114
-0.13796964 -0.014112623 0.020325072 -0.1466989 -0.0620374 -0.117647335 -0.04786752 -0.026828494

running_mean f4 [32]
00000000: 2c69 24bf f462 9e3f de4b 3cbe afb1 f93e
00000010: 4f0e f3be 90b0 aabe bd11 8ebf 5249 19be
00000020: 9071 503d 6c16 debe 7468 f7bd bc28 bdbe
00000030: 4602 14be 38a7 a4be 6c6e 1abe 5ff1 70bf
00000040: c562 2dbf e022 3abf 4fca c2bf cf78 76bf
00000050: 2b35 b7be 3917 8ebe d1e2 d33e 491f 46be
00000060: cfa5 a5bf 2a58 c7be 64d1 33bf 1c32 86be
00000070: e1a5 f7be e77e 04bf 6978 7bbe f0db c1be
-0.6422298 1.2373948 -0.18388316 0.48768374 -0.47471854 -0.33337831 -1.1099163 -0.14969376
0.05088955 -0.43376482 -0.1208047 -0.3694514 -0.14453992 -0.32158828 -0.15081185 -0.94118303
-0.67728835 -0.72709465 -1.521799 -0.9627809 -0.3578275 -0.27752092 0.41383985 -0.19347872
-1.2941226 -0.3893445 -0.7024138 -0.26210105 -0.48368743 -0.5175614 -0.24557652 -0.37863111

running_var f4 [32]
00000000: 72b0 0d3f c219 543f 470c 213f 9a4b 6f3f
00000010: 0dcb 7b3f b292 853f cff1 f23f dba1 543f
00000020: 807e 3b3f cbd3 853f 2d5c 4a3f cf58 3d3f
00000030: 1512 2f3f 717e f33e 6256 df3f 68ce 8b3f
00000040: 1d10 aa3f 44ff af3f e3a0 1640 ee27 9c3f
00000050: bf55 603f 8b82 533f bcd5 be3f 6af8 ba3e
00000060: e9be de3e 52ae 2a3f 533c ab3f 2d20 053f
00000070: e978 903f 344e ab3f a281 3d3f cee2 473f
0.5534736 0.82851803 0.6290936 0.93474734 0.98356706 1.0435393 1.8980044 0.8305947
0.732399 1.0455259 0.790469 0.73963636 0.68386966 0.47557405 1.7448237 1.0922365
1.3286167 1.3749776 2.3535697 1.2199686 0.8763084 0.8262107 1.4908977 0.3651765
0.43505028 0.6667224 1.3377784 0.5200222 1.1286899 1.3383241 0.7402593 0.7808045

weight f4 [64, 32, 3, 3]
00000000: 5eab 0cbd e61f 71bd fdfa 39bc 9a01 04bc
00000010: ecfa a5bd 9901 42bc ea29 a1bd ca18 98bd
00000020: ba09 79bd ac32 5d3c 3435 debc ec86 a5bb
00000030: 6936 253d 2d9b 38bd b996 4c3c 09ad 94bd
00000040: f34c fdbc aecb 4dbd bfac 21bd c536 3e3d
00000050: 5127 38bd d3f6 d33c ef54 7e3d 9aa7 2ebd
00000060: c073 39bd 005b 89bd 0852 ba3c 07a9 d4ba
00000070: 65ed 8d3d b43b ae3d b6ee da3b 58ad 5ebd
00000080: b9d6 173c 9386 96bc bb54 32bd dc8e 403d
00000090: 95c6 3cbd f2da 883d 246b 70bd 74b3 1d3c
000000a0: 68d3 08bd c7a0 7fbb 409b 27bd 7594 803c
000000b0: 01d5 e7bc 4d21 103d c86d d23c 0c11 843d
000000c0: ebcc 3abb 5aed 893d 1bd5 e8bc f6ea 523d
000000d0: 9b8c 193d 49ea f4bc 042d 12bd 6102 75bd
000000e0: 67c9 6bbd 859c 2f3d 3d4d 52bd ae76 6d3d
000000f0: 6124 783d ec3c ab3d 96b6 a5bc 54db 343d
00000100: cac9 703c 505f 763b a6b8 183d 4f87 3d3d
00000110: 26e9 bbbc 458d a6bd edd1 dd3c 46e9 85bd
00000120: c28c 863d 2142 c13a b836 a43b b925 cd3c
00000130: 3bb1 3bbd 451f b93c 3dbf c73b 9814 c5bc
00000140: 7b25 71bd 1db4 123d 8df1 333d 7673 8c3d
00000150: a290 27bc 7f99 db3b c0ce 4fbd f5ff ffbc
00000160: acd7 dd3c 2c5e a5bd 4981 ac3d 4b55 7f3d
00000170: 73d3 f33d c936 973c 3734 abbc 4c45 bbbc
00000180: 4054 483b 06ec 7bbd d023 2dbb 417a a1bd
00000190: 489b 81bd 25c6 79bc eb52 4bbd 32f5 eebc
000001a0: 4371 d6bc a866 1cbd 6ee1 d0bc 56bb 83bd
000001b0: bea8 9f3d 2fea 913d b688 c63d 4a00 04bd
000001c0: 90ae 1ebb 6ca1 093d e5fd 41bd 16d1 74bd
000001d0: 513d 7abb e653 c73d d116 be3b 8f50 5a3d
000001e0: 7602 813d 43f9 28bd 5205 3a3d 23bd 04bd
000001f0: 5a32 93bd e080 43bd 57b2 6bbd 6863 44bc
00000200: 27ae 223d 6489 2fbd cbdd 41bd bd18 9e3c
00000210: 10ed 503c 00a2 9abb 1dde 2abc 51d3 29bd
00000220: 0918 1d3d 1631 8fbd ba8a 66bd 04fe e9bc
00000230: 6788 c9bc a01d 243c cbbe 4dbd 3cad 8abc
00000240: 7935 00bd 297e dcba 085b 67bd 8a9d a13d
00000250: b9a9 bf3c 860b 8c3b 7454 523d f2da 78bc
00000260: 630a 29bd d648 d3bc db5f be3c 8b3d 3abd
00000270: e181 f5bc b3fd b8bd c871 b3bd fa27 34bc
00000280: d25c fcbc c875 01bd 4b48 55bd 1b58 213d
00000290: 2286 ddbc b2a7 19bd 9eda 6a3d 4a5b b13c
000002a0: 7e11 853c 66d4 ae3a b593 cf3b 3999 c8bc
000002b0: 7b9a 20bd 1854 873c e355 cd3a a65a 863c
000002c0: 70fa 223d 887c cbbc fd60 103d f1a6 0abc
000002d0: 831b 293d 09ce 233d e784 2cbd cec4 7e3c
000002e0: 67b5 803d a0dd c0bc 5280 40bd a5aa 56bc
000002f0: f191 8fbd 0aaa 903c deac 15bb e176 603d
00000300: e1d8 afbd 1e51 2fbc b161 9d3c f524 adbd
00000310: 4a39 593c ddef 00bd 31a3 faba 1130 de3c
00000320: d8f0 713d 5611 0fbc 9eed 4d3c 3a9e 0ebc
00000330: 7e6c e7bc 1b78 a0bd d543 97bd fa89 bc3d
00000340: 04ef bab9 a236 573d 3c9a a9bb 3b3f 33bd
00000350: 4c18 93bc 230c 99bd 0e34 90bd ac81 b7bd
00000360: 1841 8f3d e8c5 853d 3ab9 843d 73b2 2d3d
00000370: dfe0 c3bc de05 7f3c ff1d d93c 6b85 14bc
00000380: 3b3e 5cbd 11eb 4a3d a657 cc3d 1fb6 b63d
00000390: 2355 4c3d 4fb7 0c3d c4d5 eb3b 3bc8 8fbc
000003a0: ad83 823c d59d 11bd 173f a23d 5371 82bc
000003b0: 191f 543d 2020 4b3d 0f1b 673c 67a5 883d
000003c0: 1e74 b23d c0eb d63d 2ffe dc3d 42d1 803d
000003d0: ff57 d13d 17bb 203d 13b5 953b 59a5 13bd
000003e0: 919b 8ebd 845e 3dbd bd26 123d d9a2 83bc
000003f0: 43a9 5abd 7497 91bc df69 4fbd fa20 873c
-0.034343116 -0.05886831 -0.011351344 -0.0080570225 -0.081045 -0.011841201 -0.078693226 -0.07426603
-0.06080029 0.013500851 -0.027124979 -0.0050514843 0.040335093 -0.045069862 0.012487107 -0.07259566
-0.030920481 -0.050243072 -0.039471384 0.04643895 -0.04495937 0.02587453 0.062092718 -0.042640306
-0.045276403 -0.0670681 0.022744194 -0.001622469 0.06930045 0.08507481 0.0066812886 -0.054364532
0.009267502 -0.018374717 -0.043537837 0.04701124 -0.04608782 0.066823855 -0.058695927 0.0096253045
-0.033404738 -0.0039005743 -0.040919542 0.01569579 -0.02829981 0.035188008 0.025687113 0.06448564
-0.0028503488 0.06734724 -0.02842193 0.051493607 0.037487607 -0.029896872 -0.03568746 -0.05981672
-0.05756512 0.042873878 -0.05134319 0.05797451 0.06058157 0.08361229 -0.020228665 0.04415448
0.014696548 0.0037593432 0.03728547 0.04627162 -0.022938322 -0.08132414 0.02707764 -0.06538634
0.06569816 0.0014744439 0.005011406 0.025042402 -0.045823317 0.022597918 0.0060957954 -0.024057671
-0.058873635 0.0358163 0.043931533 0.0685796 -0.010227354 0.006701648 -0.05073428 -0.03124998
0.02708038 -0.080746025 0.08423097 0.0623372 0.11905565 0.01845874 -0.020898921 -0.022860192
0.0030567795 -0.061504386 -0.002641905 -0.07884646 -0.06328446 -0.015244995 -0.049639624 -0.029169653
-0.026177054 -0.038183838 -0.025498118 -0.06432216 0.07795857 0.07124745 0.09694044 -0.03222684
-0.0024212934 0.03360121 -0.047361273 -0.059769712 -0.003818352 0.09732799 0.00580106 0.053299483
0.062992975 -0.04125334 0.04541523 -0.032406937 -0.07187338 -0.047730327 -0.057543125 -0.011986591
0.039716866 -0.042855635 -0.04733066 0.019298906 0.012751833 -0.004719019 -0.0104289325 -0.041461293
0.038353 -0.06991784 -0.056284644 -0.028563507 -0.024601175 0.010016829 -0.050230782 -0.016928308
-0.031300995 -0.0016822267 -0.0564833 0.07891376 0.02339636 0.0042738346 0.051350072 -0.015188919
-0.04126967 -0.025791567 0.023239067 -0.04546885 -0.029969158 -0.09032764 -0.087619364 -0.010995859
-0.030805979 -0.031606466 -0.052070897 0.039390665 -0.027041499 -0.037513442 0.057337396 0.021649975
0.016243692 0.0013338446 0.0063347467 -0.024487125 -0.039209824 0.016519591 0.0015665855 0.016400646
0.039789617 -0.024839655 0.035248745 -0.0084626535 0.041286003 0.039991412 -0.042118933 0.015549852
0.062846 -0.023543179 -0.046997376 -0.013102208 -0.07010258 0.017659206 -0.0022838633 0.05480087
-0.08586288 -0.010700492 0.019211622 -0.084543146 0.013258288 -0.03147875 -0.0019122121 0.02712253
0.059067577 -0.008732161 0.012568859 -0.008704716 -0.028249975 -0.07835408 -0.07385985 0.092060044
-0.00035654765 0.052542336 -0.005175857 -0.043761473 -0.017955922 -0.07473018 -0.07041179 -0.0896028
0.069948375 0.06531888 0.06480642 0.04240651 -0.023910938 0.015565364 0.026503561 -0.009065012
-0.053770285 0.049540583 0.09977655 0.089214556 0.04988588 0.034354504 0.0071971137 -0.017551532
0.015931929 -0.03555091 0.0792219 -0.015923178 0.05178747 0.049591184 0.014105572 0.06672173
0.08713554 0.104941845 0.10790669 0.06289913 0.10221862 0.039240923 0.004568705 -0.03604636
-0.06963266 -0.046232715 0.035681475 -0.016068863 -0.053384077 -0.017772414 -0.050638076 0.016495217

bias f4 [64]
00000000: 1c82 60bd 942d 6f3c bcec e6bc 8c25 45bc
00000010: f271 e23c 0657 0c3d 7ed2 863c d7ae e63c
00000020: 43f7 2dbc 6c01 4e3d 2640 973c 012d 59bd
00000030: 842f 92bc d90c 9b3c b588 2f3d 6944 b6bb
00000040: d601 053d cc4e 343d 942b 263d 92f2 22bd
00000050: 0e37 48bc 3dad 453d d158 2e3d 5bd3 95bb
00000060: 809a 42bd 37e0 d13b 6f44 20bc d370 25bd
00000070: 16dc 543b 6b06 fcbc 7a99 20bd b9c2 1a3d
00000080: b605 10bc 0ffd f33c 1faf 653d a6c3 44bd
00000090: 8056 b3bc 5657 11bc cc3a 01bd 2843 19bd
000000a0: 8870 c9bc bb98 323d d89f 90bc 581c cc3c
000000b0: 9bc7 1d3a 61dc 8dbb 858e 2bbc 94da 603d
000000c0: e60e 12bb 6a69 1ebc 605d b93c 74d3 77bb
000000d0: 8de1 13ba 5b65 aabc 4dc3 d8bc d29a df3b
000000e0: 41f8 123b c84f f7bc 9af1 593d 389d f03c
000000f0: 43f0 21bd 6f21 3a3d ed89 b13c a08c 283d
-0.054811582 0.014598269 -0.028189056 -0.012032878 0.027642224 0.03426268 0.016457792 0.028159542
-0.010618034 0.050294325 0.018463206 -0.053021435 -0.017844923 0.018927025 0.042854983 -0.0055623543
0.032472454 0.04402046 0.040568903 -0.039782114 -0.012220157 0.048260916 0.04256517 -0.0045723147
-0.047510624 0.0064049023 -0.009781941 -0.0403908 0.0032479814 -0.03076478 -0.039208867 0.03778336
-0.008790424 0.029783754 0.05607521 -0.048038147 -0.021891832 -0.00887092 -0.031550214 -0.03741756
-0.024589792 0.043602686 -0.017654344 0.02491586 0.0006018818 -0.0043292497 -0.010470991 0.054895952
-0.0022286712 -0.009668687 0.022627532 -0.0037815245 -0.00056412147 -0.020800283 -0.026460314 0.006823876
0.0022425803 -0.03018941 0.053208925 0.029371843 -0.039535772 0.04544204 0.021672213 0.041149735

weight f4 [64]
00000000: 11c6 823f 2683 893f 6f6f 823f 14b6 773f
00000010: 7ee0 893f 0446 853f 0764 753f 062e 723f
00000020: 4445 783f 1359 7c3f ac59 883f 6291 703f
00000030: dd21 743f 4cdd 773f b954 8b3f 3360 7b3f
00000040: 6395 8d3f 18ea 893f e601 6f3f 5e49 6d3f
00000050: d7dc 803f 7aad 763f 1dd7 7f3f 63e0 7c3f
00000060: 5fc1 813f 03b2 6f3f 8679 683f 45e5 7b3f
00000070: 2c86 853f 6906 5b3f fedd 7b3f f437 813f
00000080: b6eb 7a3f 0b0c 783f fabc 893f c8ca 813f
00000090: b83c 803f 3fcb 7d3f 884e 743f 84cc 933f
000000a0: 4e04 6b3f 1f84 773f a08d 6c3f 2759 823f
000000b0: fabb 6f3f cd6b 7d3f 691f 763f 2367 833f
000000c0: dc84 6e3f 7465 8a3f 68c7 8a3f 1495 733f
000000d0: 81ea 753f f945 733f ae53 783f 972b 7a3f
000000e0: f52c 7d3f dac2 823f a9ee 6d3f f065 833f
000000f0: 9b6e 6d3f f6a1 6e3f 884d 7a3f 75b1 783f
1.0216695 1.0743148 1.0190257 0.96762204 1.0771635 1.0411992 0.95855755 0.94601476
0.9698069 0.98573416 1.0652366 0.93971837 0.9536417 0.9682205 1.088523 0.98193663
1.1061214 1.0774565 0.9336227 0.92690074 1.0067395 0.96358454 0.9993761 0.98779887
1.0137137 0.93631 0.9081043 0.9839671 1.0431571 0.85556656 0.9838561 1.00952
0.98015916 0.96893376 1.0760796 1.0140009 1.001853 0.99138254 0.9543233 1.1546788
0.91803443 0.96685976 0.924036 1.0183457 0.93646204 0.98992616 0.9614168 1.026585
0.9317148 1.0812211 1.0842104 0.9514935 0.9606095 0.95028645 0.97002685 0.9772276
0.98896724 1.0215714 0.9294229 1.0265484 0.92746896 0.9321588 0.97774553 0.9714578

bias f4 [64]
00000000: 0885 84bd 5573 5dbd a4b9 a6bd 6526 22be
00000010: 51b0 7ebd ef90 06bd 61e8 75bd b232 b4bd
00000020: b5c8 d2bd eef8 90bd c398 45be 26be edbd
00000030: 4fc3 09be d5ef 15be 4688 a7bd c223 11be
00000040: e4e1 8bbd 0fc9 1fbe 1dd9 f6bd 908e 62be
00000050: 98a4 a8bd c987 67bd 78bc 9bbd 6f36 debd
00000060: 57a8 a4bd aeb6 1abe 8622 08be cb20 9dbd
00000070: 234d b7bd 856e 41be 6c8a 85bd daf2 02be
00000080: ecdb 04be 2bef 22be 4e27 0dbd ca18 00be
00000090: 812c 17be 2a24 12be ecea 10be d162 0ebe
000000a0: 9c7c 01be 8370 e6bd 325f 08be 9a75 17bd
000000b0: ce00 afbd dba3 12be 97ee d5bd 9e64 29bd
000000c0: fc48 80bd 7407 d6bd 0fb2 e5bd 2b56 d9bd
000000d0: 601d d1bd 22bf a5bd 0f61 acbd 7435 00be
000000e0: 3c25 9fbd 272c 05be 8899 b9bd 68fc 6abe
000000f0: 7e40 f7bd ed09 1abe e936 68bd 72c5 9cbd
-0.06470686 -0.054065067 -0.08140877 -0.15834959 -0.062179867 -0.032853063 -0.060036067 -0.08798732
-0.10292188 -0.070787296 -0.19296555 -0.116085336 -0.1345341 -0.1464227 -0.08180289 -0.14173797
-0.068301946 -0.15604042 -0.1205313 -0.22124696 -0.08234519 -0.05652598 -0.07604307 -0.10850226
-0.08039921 -0.1510875 -0.1329442 -0.076722704 -0.089502595 -0.18889816 -0.065205425 -0.12787953
-0.12974519 -0.15911548 -0.034461312 -0.12509456 -0.1476307 -0.14271608 -0.14152116 -0.13904883
-0.12645191 -0.11251929 -0.13317564 -0.036977388 -0.08545075 -0.14320318 -0.10445898 -0.04135572
-0.06263921 -0.1045064 -0.112156026 -0.10612138 -0.10210681 -0.08093096 -0.0841695 -0.12520391
-0.07770774 -0.13005124 -0.09062487 -0.22947848 -0.12072848 -0.15042849 -0.05669299 -0.07654847

running_mean f4 [64]
00000000: e9ef 5cbf 0bcc 00bf dd8c 1dc0 b4b2 6dc0
00000010: 57e1 b2bf fa14 b83f 75d0 01bf cf9d 1cbf
00000020: 2830 3ebf 1afb 2ec0 d74c 76bd 9b97 7c3f
00000030: 0a60 a1bf c549 42c0 db4f 88bf 74ce d0bf
00000040: fc5e 15c0 2587 343d bf88 84bf 52e4 e2bf
00000050: c7bb c93d ad48 9d3f 3d8f 1040 160f 94be
00000060: a1b8 9c3f c2fe ec3e a0b2 5ebf 7a64 40bf
00000070: 9a48 1c40 ab51 efbf bec1 83bd fc51 2ac0
00000080: b6c7 5ac0 fe96 38bf 208b b7be dc48 24c0
00000090: 609f 55c0 76d7 2dc0 4e08 5ebf 50de 31be
000000a0: 78b1 92be c357 2dc0 c201 dbbe 0d29 da3e
000000b0: 1d7d 5abd d5ce 4dc0 68bf 7d3f 5f16 bfbf
000000c0: a28a be3e d42f 7bbe e100 cf3e 2831 d4bf
000000d0: 49ee dbbf fd53 c53f 8c51 ca3d 48d8 4ec0
000000e0: cec1 4840 db67 d6bf 882a 9b3e 53fb b9bd
000000f0: 342e 88bf b21a 43c0 b4ff 29c0 6da6 4e3f
-0.86303574 -0.50311345 -2.4617226 -3.7140322 -1.3975018 1.4381402 -0.50708705 -0.61178297
-0.7429223 -2.734076 -0.060131874 0.9866883 -1.2607434 -3.0357525 -1.064937 -1.6313004
-2.3339224 0.044074196 -1.0354232 -1.7725928 0.09850269 1.2287804 2.2587426 -0.2891776
1.2243844 0.46288115 -0.8699131 -0.75153315 2.4419312 -1.8696798 -0.06433438 -2.661254
-3.4184394 -0.72105396 -0.3584833 -2.566947 -3.3378525 -2.7162757 -0.8673142 -0.17369962
-0.28651023 -2.7084816 -0.4277478 0.42609444 -0.053341974 -3.215749 0.9912019 -1.4928702
0.37215143 -0.24529964 0.40430358 -1.6577501 -1.7182094 1.5416256 0.09878835 -3.2319508
3.136829 -1.6750444 0.30305886 -0.090811394 -1.06391 -3.0485044 -2.6562319 0.80722696
